{
  "modelTopology": {
    "node": [
      {
        "input": [],
        "attr": {
          "value": {
            "tensor": {
              "floatVal": [],
              "doubleVal": [],
              "intVal": [],
              "stringVal": [],
              "scomplexVal": [],
              "int64Val": [],
              "boolVal": [],
              "uint32Val": [],
              "uint64Val": [],
              "dtype": 1,
              "tensorShape": {
                "dim": []
              }
            }
          },
          "dtype": {
            "type": 1
          }
        },
        "name": "ConstantFolding/Postprocessor/Decode/div_recip",
        "op": "Const"
      },
      {
        "input": [],
        "attr": {
          "dtype": {
            "type": 1
          },
          "value": {
            "tensor": {
              "floatVal": [],
              "doubleVal": [],
              "intVal": [],
              "stringVal": [],
              "scomplexVal": [],
              "int64Val": [],
              "boolVal": [],
              "uint32Val": [],
              "uint64Val": [],
              "dtype": 1,
              "tensorShape": {
                "dim": [
                  {
                    "size": "1083"
                  },
                  {
                    "size": "2"
                  }
                ]
              }
            }
          }
        },
        "name": "MultipleGridAnchorGenerator/Reshape",
        "op": "Const"
      },
      {
        "input": [],
        "attr": {
          "value": {
            "tensor": {
              "floatVal": [],
              "doubleVal": [],
              "intVal": [],
              "stringVal": [],
              "scomplexVal": [],
              "int64Val": [],
              "boolVal": [],
              "uint32Val": [],
              "uint64Val": [],
              "dtype": 1,
              "tensorShape": {
                "dim": [
                  {
                    "size": "3"
                  }
                ]
              }
            }
          },
          "dtype": {
            "type": 1
          }
        },
        "name": "MultipleGridAnchorGenerator/div_14",
        "op": "Const"
      },
      {
        "input": [],
        "attr": {
          "value": {
            "tensor": {
              "floatVal": [],
              "doubleVal": [],
              "intVal": [],
              "stringVal": [],
              "scomplexVal": [],
              "int64Val": [],
              "boolVal": [],
              "uint32Val": [],
              "uint64Val": [],
              "dtype": 1,
              "tensorShape": {
                "dim": [
                  {
                    "size": "3"
                  }
                ]
              }
            }
          },
          "dtype": {
            "type": 1
          }
        },
        "name": "MultipleGridAnchorGenerator/mul_15",
        "op": "Const"
      },
      {
        "input": [],
        "attr": {
          "dtype": {
            "type": 3
          },
          "value": {
            "tensor": {
              "floatVal": [],
              "doubleVal": [],
              "intVal": [],
              "stringVal": [],
              "scomplexVal": [],
              "int64Val": [],
              "boolVal": [],
              "uint32Val": [],
              "uint64Val": [],
              "dtype": 3,
              "tensorShape": {
                "dim": [
                  {
                    "size": "3"
                  }
                ]
              }
            }
          }
        },
        "name": "MultipleGridAnchorGenerator/Meshgrid_2/ExpandedShape/concat",
        "op": "Const"
      },
      {
        "input": [],
        "attr": {
          "value": {
            "tensor": {
              "floatVal": [],
              "doubleVal": [],
              "intVal": [],
              "stringVal": [],
              "scomplexVal": [],
              "int64Val": [],
              "boolVal": [],
              "uint32Val": [],
              "uint64Val": [],
              "dtype": 3,
              "tensorShape": {
                "dim": [
                  {
                    "size": "3"
                  }
                ]
              }
            }
          },
          "dtype": {
            "type": 3
          }
        },
        "name": "MultipleGridAnchorGenerator/Meshgrid_2/ExpandedShape_1/concat",
        "op": "Const"
      },
      {
        "input": [],
        "attr": {
          "value": {
            "tensor": {
              "floatVal": [],
              "doubleVal": [],
              "intVal": [],
              "stringVal": [],
              "scomplexVal": [],
              "int64Val": [],
              "boolVal": [],
              "uint32Val": [],
              "uint64Val": [],
              "dtype": 1,
              "tensorShape": {
                "dim": [
                  {
                    "size": "600"
                  },
                  {
                    "size": "2"
                  }
                ]
              }
            }
          },
          "dtype": {
            "type": 1
          }
        },
        "name": "MultipleGridAnchorGenerator/Reshape_2",
        "op": "Const"
      },
      {
        "input": [],
        "attr": {
          "value": {
            "tensor": {
              "floatVal": [],
              "doubleVal": [],
              "intVal": [],
              "stringVal": [],
              "scomplexVal": [],
              "int64Val": [],
              "boolVal": [],
              "uint32Val": [],
              "uint64Val": [],
              "dtype": 1,
              "tensorShape": {
                "dim": [
                  {
                    "size": "6"
                  }
                ]
              }
            }
          },
          "dtype": {
            "type": 1
          }
        },
        "name": "MultipleGridAnchorGenerator/div_15",
        "op": "Const"
      },
      {
        "input": [],
        "attr": {
          "value": {
            "tensor": {
              "floatVal": [],
              "doubleVal": [],
              "intVal": [],
              "stringVal": [],
              "scomplexVal": [],
              "int64Val": [],
              "boolVal": [],
              "uint32Val": [],
              "uint64Val": [],
              "dtype": 1,
              "tensorShape": {
                "dim": [
                  {
                    "size": "6"
                  }
                ]
              }
            }
          },
          "dtype": {
            "type": 1
          }
        },
        "name": "MultipleGridAnchorGenerator/mul_23",
        "op": "Const"
      },
      {
        "input": [],
        "attr": {
          "value": {
            "tensor": {
              "floatVal": [],
              "doubleVal": [],
              "intVal": [],
              "stringVal": [],
              "scomplexVal": [],
              "int64Val": [],
              "boolVal": [],
              "uint32Val": [],
              "uint64Val": [],
              "dtype": 3,
              "tensorShape": {
                "dim": [
                  {
                    "size": "3"
                  }
                ]
              }
            }
          },
          "dtype": {
            "type": 3
          }
        },
        "name": "MultipleGridAnchorGenerator/Meshgrid_5/ExpandedShape_1/concat",
        "op": "Const"
      },
      {
        "input": [],
        "attr": {
          "dtype": {
            "type": 1
          },
          "value": {
            "tensor": {
              "floatVal": [],
              "doubleVal": [],
              "intVal": [],
              "stringVal": [],
              "scomplexVal": [],
              "int64Val": [],
              "boolVal": [],
              "uint32Val": [],
              "uint64Val": [],
              "dtype": 1,
              "tensorShape": {
                "dim": [
                  {
                    "size": "150"
                  },
                  {
                    "size": "2"
                  }
                ]
              }
            }
          }
        },
        "name": "MultipleGridAnchorGenerator/Reshape_4",
        "op": "Const"
      },
      {
        "input": [],
        "attr": {
          "value": {
            "tensor": {
              "floatVal": [],
              "doubleVal": [],
              "intVal": [],
              "stringVal": [],
              "scomplexVal": [],
              "int64Val": [],
              "boolVal": [],
              "uint32Val": [],
              "uint64Val": [],
              "dtype": 1,
              "tensorShape": {
                "dim": [
                  {
                    "size": "6"
                  }
                ]
              }
            }
          },
          "dtype": {
            "type": 1
          }
        },
        "name": "MultipleGridAnchorGenerator/div_16",
        "op": "Const"
      },
      {
        "input": [],
        "attr": {
          "value": {
            "tensor": {
              "floatVal": [],
              "doubleVal": [],
              "intVal": [],
              "stringVal": [],
              "scomplexVal": [],
              "int64Val": [],
              "boolVal": [],
              "uint32Val": [],
              "uint64Val": [],
              "dtype": 1,
              "tensorShape": {
                "dim": [
                  {
                    "size": "6"
                  }
                ]
              }
            }
          },
          "dtype": {
            "type": 1
          }
        },
        "name": "MultipleGridAnchorGenerator/mul_31",
        "op": "Const"
      },
      {
        "input": [],
        "attr": {
          "value": {
            "tensor": {
              "floatVal": [],
              "doubleVal": [],
              "intVal": [],
              "stringVal": [],
              "scomplexVal": [],
              "int64Val": [],
              "boolVal": [],
              "uint32Val": [],
              "uint64Val": [],
              "dtype": 3,
              "tensorShape": {
                "dim": [
                  {
                    "size": "3"
                  }
                ]
              }
            }
          },
          "dtype": {
            "type": 3
          }
        },
        "name": "MultipleGridAnchorGenerator/Meshgrid_8/ExpandedShape_1/concat",
        "op": "Const"
      },
      {
        "input": [],
        "attr": {
          "value": {
            "tensor": {
              "floatVal": [],
              "doubleVal": [],
              "intVal": [],
              "stringVal": [],
              "scomplexVal": [],
              "int64Val": [],
              "boolVal": [],
              "uint32Val": [],
              "uint64Val": [],
              "dtype": 1,
              "tensorShape": {
                "dim": [
                  {
                    "size": "54"
                  },
                  {
                    "size": "2"
                  }
                ]
              }
            }
          },
          "dtype": {
            "type": 1
          }
        },
        "name": "MultipleGridAnchorGenerator/Reshape_6",
        "op": "Const"
      },
      {
        "input": [],
        "attr": {
          "value": {
            "tensor": {
              "floatVal": [],
              "doubleVal": [],
              "intVal": [],
              "stringVal": [],
              "scomplexVal": [],
              "int64Val": [],
              "boolVal": [],
              "uint32Val": [],
              "uint64Val": [],
              "dtype": 1,
              "tensorShape": {
                "dim": [
                  {
                    "size": "6"
                  }
                ]
              }
            }
          },
          "dtype": {
            "type": 1
          }
        },
        "name": "MultipleGridAnchorGenerator/div_17",
        "op": "Const"
      },
      {
        "input": [],
        "attr": {
          "value": {
            "tensor": {
              "floatVal": [],
              "doubleVal": [],
              "intVal": [],
              "stringVal": [],
              "scomplexVal": [],
              "int64Val": [],
              "boolVal": [],
              "uint32Val": [],
              "uint64Val": [],
              "dtype": 1,
              "tensorShape": {
                "dim": [
                  {
                    "size": "6"
                  }
                ]
              }
            }
          },
          "dtype": {
            "type": 1
          }
        },
        "name": "MultipleGridAnchorGenerator/mul_39",
        "op": "Const"
      },
      {
        "input": [],
        "attr": {
          "value": {
            "tensor": {
              "floatVal": [],
              "doubleVal": [],
              "intVal": [],
              "stringVal": [],
              "scomplexVal": [],
              "int64Val": [],
              "boolVal": [],
              "uint32Val": [],
              "uint64Val": [],
              "dtype": 3,
              "tensorShape": {
                "dim": [
                  {
                    "size": "3"
                  }
                ]
              }
            }
          },
          "dtype": {
            "type": 3
          }
        },
        "name": "MultipleGridAnchorGenerator/Meshgrid_11/ExpandedShape_1/concat",
        "op": "Const"
      },
      {
        "input": [],
        "attr": {
          "value": {
            "tensor": {
              "floatVal": [],
              "doubleVal": [],
              "intVal": [],
              "stringVal": [],
              "scomplexVal": [],
              "int64Val": [],
              "boolVal": [],
              "uint32Val": [],
              "uint64Val": [],
              "dtype": 1,
              "tensorShape": {
                "dim": [
                  {
                    "size": "24"
                  },
                  {
                    "size": "2"
                  }
                ]
              }
            }
          },
          "dtype": {
            "type": 1
          }
        },
        "name": "MultipleGridAnchorGenerator/Reshape_8",
        "op": "Const"
      },
      {
        "input": [],
        "attr": {
          "value": {
            "tensor": {
              "floatVal": [],
              "doubleVal": [],
              "intVal": [],
              "stringVal": [],
              "scomplexVal": [],
              "int64Val": [],
              "boolVal": [],
              "uint32Val": [],
              "uint64Val": [],
              "dtype": 1,
              "tensorShape": {
                "dim": [
                  {
                    "size": "6"
                  }
                ]
              }
            }
          },
          "dtype": {
            "type": 1
          }
        },
        "name": "MultipleGridAnchorGenerator/div_18",
        "op": "Const"
      },
      {
        "input": [],
        "attr": {
          "value": {
            "tensor": {
              "floatVal": [],
              "doubleVal": [],
              "intVal": [],
              "stringVal": [],
              "scomplexVal": [],
              "int64Val": [],
              "boolVal": [],
              "uint32Val": [],
              "uint64Val": [],
              "dtype": 1,
              "tensorShape": {
                "dim": [
                  {
                    "size": "6"
                  }
                ]
              }
            }
          },
          "dtype": {
            "type": 1
          }
        },
        "name": "MultipleGridAnchorGenerator/mul_47",
        "op": "Const"
      },
      {
        "input": [],
        "attr": {
          "value": {
            "tensor": {
              "floatVal": [],
              "doubleVal": [],
              "intVal": [],
              "stringVal": [],
              "scomplexVal": [],
              "int64Val": [],
              "boolVal": [],
              "uint32Val": [],
              "uint64Val": [],
              "dtype": 3,
              "tensorShape": {
                "dim": [
                  {
                    "size": "3"
                  }
                ]
              }
            }
          },
          "dtype": {
            "type": 3
          }
        },
        "name": "MultipleGridAnchorGenerator/Meshgrid_14/ExpandedShape_1/concat",
        "op": "Const"
      },
      {
        "input": [],
        "attr": {
          "value": {
            "tensor": {
              "floatVal": [],
              "doubleVal": [],
              "intVal": [],
              "stringVal": [],
              "scomplexVal": [],
              "int64Val": [],
              "boolVal": [],
              "uint32Val": [],
              "uint64Val": [],
              "dtype": 1,
              "tensorShape": {
                "dim": [
                  {
                    "size": "6"
                  },
                  {
                    "size": "2"
                  }
                ]
              }
            }
          },
          "dtype": {
            "type": 1
          }
        },
        "name": "MultipleGridAnchorGenerator/Reshape_10",
        "op": "Const"
      },
      {
        "input": [],
        "attr": {
          "value": {
            "tensor": {
              "floatVal": [],
              "doubleVal": [],
              "intVal": [],
              "stringVal": [],
              "scomplexVal": [],
              "int64Val": [],
              "boolVal": [],
              "uint32Val": [],
              "uint64Val": [],
              "dtype": 1,
              "tensorShape": {
                "dim": [
                  {
                    "size": "6"
                  }
                ]
              }
            }
          },
          "dtype": {
            "type": 1
          }
        },
        "name": "MultipleGridAnchorGenerator/div_19",
        "op": "Const"
      },
      {
        "input": [],
        "attr": {
          "value": {
            "tensor": {
              "floatVal": [],
              "doubleVal": [],
              "intVal": [],
              "stringVal": [],
              "scomplexVal": [],
              "int64Val": [],
              "boolVal": [],
              "uint32Val": [],
              "uint64Val": [],
              "dtype": 1,
              "tensorShape": {
                "dim": [
                  {
                    "size": "6"
                  }
                ]
              }
            }
          },
          "dtype": {
            "type": 1
          }
        },
        "name": "MultipleGridAnchorGenerator/mul_55",
        "op": "Const"
      },
      {
        "input": [],
        "attr": {
          "value": {
            "tensor": {
              "floatVal": [],
              "doubleVal": [],
              "intVal": [
                2
              ],
              "stringVal": [],
              "scomplexVal": [],
              "int64Val": [],
              "boolVal": [],
              "uint32Val": [],
              "uint64Val": [],
              "dtype": 3,
              "tensorShape": {
                "dim": [
                  {
                    "size": "1"
                  }
                ]
              }
            }
          },
          "dtype": {
            "type": 3
          }
        },
        "name": "strided_slice_6/stack_1",
        "op": "Const"
      },
      {
        "input": [],
        "attr": {
          "value": {
            "tensor": {
              "floatVal": [],
              "doubleVal": [],
              "intVal": [
                3
              ],
              "stringVal": [],
              "scomplexVal": [],
              "int64Val": [],
              "boolVal": [],
              "uint32Val": [],
              "uint64Val": [],
              "dtype": 3,
              "tensorShape": {
                "dim": [
                  {
                    "size": "1"
                  }
                ]
              }
            }
          },
          "dtype": {
            "type": 3
          }
        },
        "name": "strided_slice_7/stack_1",
        "op": "Const"
      },
      {
        "input": [],
        "attr": {
          "value": {
            "tensor": {
              "floatVal": [],
              "doubleVal": [],
              "intVal": [],
              "stringVal": [],
              "scomplexVal": [],
              "int64Val": [],
              "boolVal": [],
              "uint32Val": [],
              "uint64Val": [],
              "dtype": 3,
              "tensorShape": {
                "dim": [
                  {
                    "size": "3"
                  }
                ]
              }
            }
          },
          "dtype": {
            "type": 3
          }
        },
        "name": "MultipleGridAnchorGenerator/Meshgrid_5/ExpandedShape/concat",
        "op": "Const"
      },
      {
        "input": [],
        "attr": {
          "value": {
            "tensor": {
              "floatVal": [],
              "doubleVal": [],
              "intVal": [],
              "stringVal": [],
              "scomplexVal": [],
              "int64Val": [],
              "boolVal": [],
              "uint32Val": [],
              "uint64Val": [],
              "dtype": 3,
              "tensorShape": {
                "dim": [
                  {
                    "size": "2"
                  }
                ]
              }
            }
          },
          "dtype": {
            "type": 3
          }
        },
        "name": "MultipleGridAnchorGenerator/Reshape_1/shape",
        "op": "Const"
      },
      {
        "input": [],
        "attr": {
          "value": {
            "tensor": {
              "floatVal": [],
              "doubleVal": [],
              "intVal": [],
              "stringVal": [],
              "scomplexVal": [],
              "int64Val": [],
              "boolVal": [],
              "uint32Val": [],
              "uint64Val": [],
              "dtype": 1,
              "tensorShape": {
                "dim": []
              }
            }
          },
          "dtype": {
            "type": 1
          }
        },
        "name": "MultipleGridAnchorGenerator/mul_19/x",
        "op": "Const"
      },
      {
        "input": [],
        "attr": {
          "value": {
            "tensor": {
              "floatVal": [],
              "doubleVal": [],
              "intVal": [],
              "stringVal": [],
              "scomplexVal": [],
              "int64Val": [],
              "boolVal": [],
              "uint32Val": [],
              "uint64Val": [],
              "dtype": 3,
              "tensorShape": {
                "dim": [
                  {
                    "size": "2"
                  }
                ]
              }
            }
          },
          "dtype": {
            "type": 3
          }
        },
        "name": "Postprocessor/Reshape_1/shape",
        "op": "Const"
      },
      {
        "input": [],
        "attr": {
          "dtype": {
            "type": 1
          },
          "value": {
            "tensor": {
              "floatVal": [],
              "doubleVal": [],
              "intVal": [],
              "stringVal": [],
              "scomplexVal": [],
              "int64Val": [],
              "boolVal": [],
              "uint32Val": [],
              "uint64Val": [],
              "dtype": 1,
              "tensorShape": {
                "dim": []
              }
            }
          }
        },
        "name": "ConstantFolding/Postprocessor/Decode/div_2_recip",
        "op": "Const"
      },
      {
        "input": [],
        "attr": {
          "value": {
            "tensor": {
              "floatVal": [],
              "doubleVal": [],
              "intVal": [],
              "stringVal": [],
              "scomplexVal": [],
              "int64Val": [],
              "boolVal": [],
              "uint32Val": [],
              "uint64Val": [],
              "dtype": 1,
              "tensorShape": {
                "dim": [
                  {
                    "size": "1"
                  },
                  {
                    "size": "1"
                  },
                  {
                    "size": "512"
                  },
                  {
                    "size": "12"
                  }
                ]
              }
            }
          },
          "dtype": {
            "type": 1
          }
        },
        "name": "BoxPredictor_0/BoxEncodingPredictor/weights",
        "op": "Const"
      },
      {
        "input": [],
        "attr": {
          "value": {
            "tensor": {
              "floatVal": [],
              "doubleVal": [],
              "intVal": [],
              "stringVal": [],
              "scomplexVal": [],
              "int64Val": [],
              "boolVal": [],
              "uint32Val": [],
              "uint64Val": [],
              "dtype": 1,
              "tensorShape": {
                "dim": [
                  {
                    "size": "12"
                  }
                ]
              }
            }
          },
          "dtype": {
            "type": 1
          }
        },
        "name": "BoxPredictor_0/BoxEncodingPredictor/biases",
        "op": "Const"
      },
      {
        "input": [],
        "attr": {
          "value": {
            "tensor": {
              "floatVal": [],
              "doubleVal": [],
              "intVal": [],
              "stringVal": [],
              "scomplexVal": [],
              "int64Val": [],
              "boolVal": [],
              "uint32Val": [],
              "uint64Val": [],
              "dtype": 1,
              "tensorShape": {
                "dim": [
                  {
                    "size": "1"
                  },
                  {
                    "size": "1"
                  },
                  {
                    "size": "1024"
                  },
                  {
                    "size": "24"
                  }
                ]
              }
            }
          },
          "dtype": {
            "type": 1
          }
        },
        "name": "BoxPredictor_1/BoxEncodingPredictor/weights",
        "op": "Const"
      },
      {
        "input": [],
        "attr": {
          "value": {
            "tensor": {
              "floatVal": [],
              "doubleVal": [],
              "intVal": [],
              "stringVal": [],
              "scomplexVal": [],
              "int64Val": [],
              "boolVal": [],
              "uint32Val": [],
              "uint64Val": [],
              "dtype": 1,
              "tensorShape": {
                "dim": [
                  {
                    "size": "24"
                  }
                ]
              }
            }
          },
          "dtype": {
            "type": 1
          }
        },
        "name": "BoxPredictor_1/BoxEncodingPredictor/biases",
        "op": "Const"
      },
      {
        "input": [],
        "attr": {
          "value": {
            "tensor": {
              "floatVal": [],
              "doubleVal": [],
              "intVal": [],
              "stringVal": [],
              "scomplexVal": [],
              "int64Val": [],
              "boolVal": [],
              "uint32Val": [],
              "uint64Val": [],
              "dtype": 1,
              "tensorShape": {
                "dim": [
                  {
                    "size": "1"
                  },
                  {
                    "size": "1"
                  },
                  {
                    "size": "512"
                  },
                  {
                    "size": "24"
                  }
                ]
              }
            }
          },
          "dtype": {
            "type": 1
          }
        },
        "name": "BoxPredictor_2/BoxEncodingPredictor/weights",
        "op": "Const"
      },
      {
        "input": [],
        "attr": {
          "value": {
            "tensor": {
              "floatVal": [],
              "doubleVal": [],
              "intVal": [],
              "stringVal": [],
              "scomplexVal": [],
              "int64Val": [],
              "boolVal": [],
              "uint32Val": [],
              "uint64Val": [],
              "dtype": 1,
              "tensorShape": {
                "dim": [
                  {
                    "size": "24"
                  }
                ]
              }
            }
          },
          "dtype": {
            "type": 1
          }
        },
        "name": "BoxPredictor_2/BoxEncodingPredictor/biases",
        "op": "Const"
      },
      {
        "input": [],
        "attr": {
          "value": {
            "tensor": {
              "floatVal": [],
              "doubleVal": [],
              "intVal": [],
              "stringVal": [],
              "scomplexVal": [],
              "int64Val": [],
              "boolVal": [],
              "uint32Val": [],
              "uint64Val": [],
              "dtype": 1,
              "tensorShape": {
                "dim": [
                  {
                    "size": "1"
                  },
                  {
                    "size": "1"
                  },
                  {
                    "size": "256"
                  },
                  {
                    "size": "24"
                  }
                ]
              }
            }
          },
          "dtype": {
            "type": 1
          }
        },
        "name": "BoxPredictor_3/BoxEncodingPredictor/weights",
        "op": "Const"
      },
      {
        "input": [],
        "attr": {
          "dtype": {
            "type": 1
          },
          "value": {
            "tensor": {
              "floatVal": [],
              "doubleVal": [],
              "intVal": [],
              "stringVal": [],
              "scomplexVal": [],
              "int64Val": [],
              "boolVal": [],
              "uint32Val": [],
              "uint64Val": [],
              "dtype": 1,
              "tensorShape": {
                "dim": [
                  {
                    "size": "24"
                  }
                ]
              }
            }
          }
        },
        "name": "BoxPredictor_3/BoxEncodingPredictor/biases",
        "op": "Const"
      },
      {
        "input": [],
        "attr": {
          "value": {
            "tensor": {
              "floatVal": [],
              "doubleVal": [],
              "intVal": [],
              "stringVal": [],
              "scomplexVal": [],
              "int64Val": [],
              "boolVal": [],
              "uint32Val": [],
              "uint64Val": [],
              "dtype": 1,
              "tensorShape": {
                "dim": [
                  {
                    "size": "1"
                  },
                  {
                    "size": "1"
                  },
                  {
                    "size": "256"
                  },
                  {
                    "size": "24"
                  }
                ]
              }
            }
          },
          "dtype": {
            "type": 1
          }
        },
        "name": "BoxPredictor_4/BoxEncodingPredictor/weights",
        "op": "Const"
      },
      {
        "input": [],
        "attr": {
          "dtype": {
            "type": 1
          },
          "value": {
            "tensor": {
              "floatVal": [],
              "doubleVal": [],
              "intVal": [],
              "stringVal": [],
              "scomplexVal": [],
              "int64Val": [],
              "boolVal": [],
              "uint32Val": [],
              "uint64Val": [],
              "dtype": 1,
              "tensorShape": {
                "dim": [
                  {
                    "size": "24"
                  }
                ]
              }
            }
          }
        },
        "name": "BoxPredictor_4/BoxEncodingPredictor/biases",
        "op": "Const"
      },
      {
        "input": [],
        "attr": {
          "dtype": {
            "type": 1
          },
          "value": {
            "tensor": {
              "floatVal": [],
              "doubleVal": [],
              "intVal": [],
              "stringVal": [],
              "scomplexVal": [],
              "int64Val": [],
              "boolVal": [],
              "uint32Val": [],
              "uint64Val": [],
              "dtype": 1,
              "tensorShape": {
                "dim": [
                  {
                    "size": "1"
                  },
                  {
                    "size": "1"
                  },
                  {
                    "size": "128"
                  },
                  {
                    "size": "24"
                  }
                ]
              }
            }
          }
        },
        "name": "BoxPredictor_5/BoxEncodingPredictor/weights",
        "op": "Const"
      },
      {
        "input": [],
        "attr": {
          "value": {
            "tensor": {
              "floatVal": [],
              "doubleVal": [],
              "intVal": [],
              "stringVal": [],
              "scomplexVal": [],
              "int64Val": [],
              "boolVal": [],
              "uint32Val": [],
              "uint64Val": [],
              "dtype": 1,
              "tensorShape": {
                "dim": [
                  {
                    "size": "24"
                  }
                ]
              }
            }
          },
          "dtype": {
            "type": 1
          }
        },
        "name": "BoxPredictor_5/BoxEncodingPredictor/biases",
        "op": "Const"
      },
      {
        "input": [],
        "attr": {
          "value": {
            "tensor": {
              "floatVal": [],
              "doubleVal": [],
              "intVal": [
                1917
              ],
              "stringVal": [],
              "scomplexVal": [],
              "int64Val": [],
              "boolVal": [],
              "uint32Val": [],
              "uint64Val": [],
              "dtype": 3,
              "tensorShape": {
                "dim": []
              }
            }
          },
          "dtype": {
            "type": 3
          }
        },
        "name": "MultipleGridAnchorGenerator/assert_equal/x",
        "op": "Const"
      },
      {
        "input": [],
        "attr": {
          "value": {
            "tensor": {
              "floatVal": [],
              "doubleVal": [],
              "intVal": [
                4
              ],
              "stringVal": [],
              "scomplexVal": [],
              "int64Val": [],
              "boolVal": [],
              "uint32Val": [],
              "uint64Val": [],
              "dtype": 3,
              "tensorShape": {
                "dim": []
              }
            }
          },
          "dtype": {
            "type": 3
          }
        },
        "name": "BoxPredictor_0/stack/3",
        "op": "Const"
      },
      {
        "input": [],
        "attr": {
          "value": {
            "tensor": {
              "floatVal": [],
              "doubleVal": [],
              "intVal": [
                2
              ],
              "stringVal": [],
              "scomplexVal": [],
              "int64Val": [],
              "boolVal": [],
              "uint32Val": [],
              "uint64Val": [],
              "dtype": 3,
              "tensorShape": {
                "dim": []
              }
            }
          },
          "dtype": {
            "type": 3
          }
        },
        "name": "Postprocessor/ExpandDims_1/dim",
        "op": "Const"
      },
      {
        "input": [],
        "attr": {
          "value": {
            "tensor": {
              "floatVal": [],
              "doubleVal": [],
              "intVal": [],
              "stringVal": [],
              "scomplexVal": [],
              "int64Val": [],
              "boolVal": [],
              "uint32Val": [],
              "uint64Val": [],
              "dtype": 1,
              "tensorShape": {
                "dim": [
                  {
                    "size": "1"
                  },
                  {
                    "size": "1"
                  },
                  {
                    "size": "512"
                  },
                  {
                    "size": "273"
                  }
                ]
              }
            }
          },
          "dtype": {
            "type": 1
          }
        },
        "name": "BoxPredictor_0/ClassPredictor/weights",
        "op": "Const"
      },
      {
        "input": [],
        "attr": {
          "value": {
            "tensor": {
              "floatVal": [],
              "doubleVal": [],
              "intVal": [],
              "stringVal": [],
              "scomplexVal": [],
              "int64Val": [],
              "boolVal": [],
              "uint32Val": [],
              "uint64Val": [],
              "dtype": 1,
              "tensorShape": {
                "dim": [
                  {
                    "size": "273"
                  }
                ]
              }
            }
          },
          "dtype": {
            "type": 1
          }
        },
        "name": "BoxPredictor_0/ClassPredictor/biases",
        "op": "Const"
      },
      {
        "input": [],
        "attr": {
          "dtype": {
            "type": 3
          },
          "value": {
            "tensor": {
              "floatVal": [],
              "doubleVal": [],
              "intVal": [
                1083
              ],
              "stringVal": [],
              "scomplexVal": [],
              "int64Val": [],
              "boolVal": [],
              "uint32Val": [],
              "uint64Val": [],
              "dtype": 3,
              "tensorShape": {
                "dim": []
              }
            }
          }
        },
        "name": "BoxPredictor_0/stack/1",
        "op": "Const"
      },
      {
        "input": [],
        "attr": {
          "value": {
            "tensor": {
              "floatVal": [],
              "doubleVal": [],
              "intVal": [],
              "stringVal": [],
              "scomplexVal": [],
              "int64Val": [],
              "boolVal": [],
              "uint32Val": [],
              "uint64Val": [],
              "dtype": 1,
              "tensorShape": {
                "dim": [
                  {
                    "size": "1"
                  },
                  {
                    "size": "1"
                  },
                  {
                    "size": "1024"
                  },
                  {
                    "size": "546"
                  }
                ]
              }
            }
          },
          "dtype": {
            "type": 1
          }
        },
        "name": "BoxPredictor_1/ClassPredictor/weights",
        "op": "Const"
      },
      {
        "input": [],
        "attr": {
          "dtype": {
            "type": 1
          },
          "value": {
            "tensor": {
              "floatVal": [],
              "doubleVal": [],
              "intVal": [],
              "stringVal": [],
              "scomplexVal": [],
              "int64Val": [],
              "boolVal": [],
              "uint32Val": [],
              "uint64Val": [],
              "dtype": 1,
              "tensorShape": {
                "dim": [
                  {
                    "size": "546"
                  }
                ]
              }
            }
          }
        },
        "name": "BoxPredictor_1/ClassPredictor/biases",
        "op": "Const"
      },
      {
        "input": [],
        "attr": {
          "dtype": {
            "type": 3
          },
          "value": {
            "tensor": {
              "floatVal": [],
              "doubleVal": [],
              "intVal": [
                600
              ],
              "stringVal": [],
              "scomplexVal": [],
              "int64Val": [],
              "boolVal": [],
              "uint32Val": [],
              "uint64Val": [],
              "dtype": 3,
              "tensorShape": {
                "dim": []
              }
            }
          }
        },
        "name": "BoxPredictor_1/stack/1",
        "op": "Const"
      },
      {
        "input": [],
        "attr": {
          "value": {
            "tensor": {
              "floatVal": [],
              "doubleVal": [],
              "intVal": [],
              "stringVal": [],
              "scomplexVal": [],
              "int64Val": [],
              "boolVal": [],
              "uint32Val": [],
              "uint64Val": [],
              "dtype": 1,
              "tensorShape": {
                "dim": [
                  {
                    "size": "1"
                  },
                  {
                    "size": "1"
                  },
                  {
                    "size": "512"
                  },
                  {
                    "size": "546"
                  }
                ]
              }
            }
          },
          "dtype": {
            "type": 1
          }
        },
        "name": "BoxPredictor_2/ClassPredictor/weights",
        "op": "Const"
      },
      {
        "input": [],
        "attr": {
          "value": {
            "tensor": {
              "floatVal": [],
              "doubleVal": [],
              "intVal": [],
              "stringVal": [],
              "scomplexVal": [],
              "int64Val": [],
              "boolVal": [],
              "uint32Val": [],
              "uint64Val": [],
              "dtype": 1,
              "tensorShape": {
                "dim": [
                  {
                    "size": "546"
                  }
                ]
              }
            }
          },
          "dtype": {
            "type": 1
          }
        },
        "name": "BoxPredictor_2/ClassPredictor/biases",
        "op": "Const"
      },
      {
        "input": [],
        "attr": {
          "value": {
            "tensor": {
              "floatVal": [],
              "doubleVal": [],
              "intVal": [
                150
              ],
              "stringVal": [],
              "scomplexVal": [],
              "int64Val": [],
              "boolVal": [],
              "uint32Val": [],
              "uint64Val": [],
              "dtype": 3,
              "tensorShape": {
                "dim": []
              }
            }
          },
          "dtype": {
            "type": 3
          }
        },
        "name": "BoxPredictor_2/stack/1",
        "op": "Const"
      },
      {
        "input": [],
        "attr": {
          "dtype": {
            "type": 1
          },
          "value": {
            "tensor": {
              "floatVal": [],
              "doubleVal": [],
              "intVal": [],
              "stringVal": [],
              "scomplexVal": [],
              "int64Val": [],
              "boolVal": [],
              "uint32Val": [],
              "uint64Val": [],
              "dtype": 1,
              "tensorShape": {
                "dim": [
                  {
                    "size": "1"
                  },
                  {
                    "size": "1"
                  },
                  {
                    "size": "256"
                  },
                  {
                    "size": "546"
                  }
                ]
              }
            }
          }
        },
        "name": "BoxPredictor_3/ClassPredictor/weights",
        "op": "Const"
      },
      {
        "input": [],
        "attr": {
          "value": {
            "tensor": {
              "floatVal": [],
              "doubleVal": [],
              "intVal": [],
              "stringVal": [],
              "scomplexVal": [],
              "int64Val": [],
              "boolVal": [],
              "uint32Val": [],
              "uint64Val": [],
              "dtype": 1,
              "tensorShape": {
                "dim": [
                  {
                    "size": "546"
                  }
                ]
              }
            }
          },
          "dtype": {
            "type": 1
          }
        },
        "name": "BoxPredictor_3/ClassPredictor/biases",
        "op": "Const"
      },
      {
        "input": [],
        "attr": {
          "value": {
            "tensor": {
              "floatVal": [],
              "doubleVal": [],
              "intVal": [
                54
              ],
              "stringVal": [],
              "scomplexVal": [],
              "int64Val": [],
              "boolVal": [],
              "uint32Val": [],
              "uint64Val": [],
              "dtype": 3,
              "tensorShape": {
                "dim": []
              }
            }
          },
          "dtype": {
            "type": 3
          }
        },
        "name": "BoxPredictor_3/stack/1",
        "op": "Const"
      },
      {
        "input": [],
        "attr": {
          "value": {
            "tensor": {
              "floatVal": [],
              "doubleVal": [],
              "intVal": [],
              "stringVal": [],
              "scomplexVal": [],
              "int64Val": [],
              "boolVal": [],
              "uint32Val": [],
              "uint64Val": [],
              "dtype": 1,
              "tensorShape": {
                "dim": [
                  {
                    "size": "1"
                  },
                  {
                    "size": "1"
                  },
                  {
                    "size": "256"
                  },
                  {
                    "size": "546"
                  }
                ]
              }
            }
          },
          "dtype": {
            "type": 1
          }
        },
        "name": "BoxPredictor_4/ClassPredictor/weights",
        "op": "Const"
      },
      {
        "input": [],
        "attr": {
          "value": {
            "tensor": {
              "floatVal": [],
              "doubleVal": [],
              "intVal": [],
              "stringVal": [],
              "scomplexVal": [],
              "int64Val": [],
              "boolVal": [],
              "uint32Val": [],
              "uint64Val": [],
              "dtype": 1,
              "tensorShape": {
                "dim": [
                  {
                    "size": "546"
                  }
                ]
              }
            }
          },
          "dtype": {
            "type": 1
          }
        },
        "name": "BoxPredictor_4/ClassPredictor/biases",
        "op": "Const"
      },
      {
        "input": [],
        "attr": {
          "value": {
            "tensor": {
              "floatVal": [],
              "doubleVal": [],
              "intVal": [
                24
              ],
              "stringVal": [],
              "scomplexVal": [],
              "int64Val": [],
              "boolVal": [],
              "uint32Val": [],
              "uint64Val": [],
              "dtype": 3,
              "tensorShape": {
                "dim": []
              }
            }
          },
          "dtype": {
            "type": 3
          }
        },
        "name": "BoxPredictor_4/stack/1",
        "op": "Const"
      },
      {
        "input": [],
        "attr": {
          "value": {
            "tensor": {
              "floatVal": [],
              "doubleVal": [],
              "intVal": [],
              "stringVal": [],
              "scomplexVal": [],
              "int64Val": [],
              "boolVal": [],
              "uint32Val": [],
              "uint64Val": [],
              "dtype": 1,
              "tensorShape": {
                "dim": [
                  {
                    "size": "1"
                  },
                  {
                    "size": "1"
                  },
                  {
                    "size": "128"
                  },
                  {
                    "size": "546"
                  }
                ]
              }
            }
          },
          "dtype": {
            "type": 1
          }
        },
        "name": "BoxPredictor_5/ClassPredictor/weights",
        "op": "Const"
      },
      {
        "input": [],
        "attr": {
          "value": {
            "tensor": {
              "floatVal": [],
              "doubleVal": [],
              "intVal": [],
              "stringVal": [],
              "scomplexVal": [],
              "int64Val": [],
              "boolVal": [],
              "uint32Val": [],
              "uint64Val": [],
              "dtype": 1,
              "tensorShape": {
                "dim": [
                  {
                    "size": "546"
                  }
                ]
              }
            }
          },
          "dtype": {
            "type": 1
          }
        },
        "name": "BoxPredictor_5/ClassPredictor/biases",
        "op": "Const"
      },
      {
        "input": [],
        "attr": {
          "value": {
            "tensor": {
              "floatVal": [],
              "doubleVal": [],
              "intVal": [],
              "stringVal": [],
              "scomplexVal": [],
              "int64Val": [],
              "boolVal": [],
              "uint32Val": [],
              "uint64Val": [],
              "dtype": 1,
              "tensorShape": {
                "dim": []
              }
            }
          },
          "dtype": {
            "type": 1
          }
        },
        "name": "Preprocessor/mul/x",
        "op": "Const"
      },
      {
        "input": [],
        "attr": {
          "value": {
            "tensor": {
              "floatVal": [],
              "doubleVal": [],
              "intVal": [
                0
              ],
              "stringVal": [],
              "scomplexVal": [],
              "int64Val": [],
              "boolVal": [],
              "uint32Val": [],
              "uint64Val": [],
              "dtype": 3,
              "tensorShape": {
                "dim": []
              }
            }
          },
          "dtype": {
            "type": 3
          }
        },
        "name": "MultipleGridAnchorGenerator/Concatenate/concat/axis",
        "op": "Const"
      },
      {
        "input": [],
        "attr": {
          "value": {
            "tensor": {
              "floatVal": [],
              "doubleVal": [],
              "intVal": [],
              "stringVal": [],
              "scomplexVal": [],
              "int64Val": [],
              "boolVal": [],
              "uint32Val": [],
              "uint64Val": [],
              "dtype": 1,
              "tensorShape": {
                "dim": []
              }
            }
          },
          "dtype": {
            "type": 1
          }
        },
        "name": "MultipleGridAnchorGenerator/strided_slice",
        "op": "Const"
      },
      {
        "input": [],
        "attr": {
          "value": {
            "tensor": {
              "floatVal": [],
              "doubleVal": [],
              "intVal": [],
              "stringVal": [],
              "scomplexVal": [],
              "int64Val": [],
              "boolVal": [],
              "uint32Val": [],
              "uint64Val": [],
              "dtype": 1,
              "tensorShape": {
                "dim": [
                  {
                    "size": "3"
                  },
                  {
                    "size": "3"
                  },
                  {
                    "size": "3"
                  },
                  {
                    "size": "32"
                  }
                ]
              }
            }
          },
          "dtype": {
            "type": 1
          }
        },
        "name": "FeatureExtractor/MobilenetV1/MobilenetV1/Conv2d_0/Conv2D/merged_input",
        "op": "Const"
      },
      {
        "input": [],
        "attr": {
          "value": {
            "tensor": {
              "floatVal": [],
              "doubleVal": [],
              "intVal": [],
              "stringVal": [],
              "scomplexVal": [],
              "int64Val": [],
              "boolVal": [],
              "uint32Val": [],
              "uint64Val": [],
              "dtype": 1,
              "tensorShape": {
                "dim": [
                  {
                    "size": "32"
                  }
                ]
              }
            }
          },
          "dtype": {
            "type": 1
          }
        },
        "name": "FeatureExtractor/MobilenetV1/MobilenetV1/Conv2d_0/BatchNorm/batchnorm/sub",
        "op": "Const"
      },
      {
        "input": [],
        "attr": {
          "value": {
            "tensor": {
              "floatVal": [],
              "doubleVal": [],
              "intVal": [],
              "stringVal": [],
              "scomplexVal": [],
              "int64Val": [],
              "boolVal": [],
              "uint32Val": [],
              "uint64Val": [],
              "dtype": 1,
              "tensorShape": {
                "dim": [
                  {
                    "size": "3"
                  },
                  {
                    "size": "3"
                  },
                  {
                    "size": "32"
                  },
                  {
                    "size": "1"
                  }
                ]
              }
            }
          },
          "dtype": {
            "type": 1
          }
        },
        "name": "FeatureExtractor/MobilenetV1/Conv2d_1_depthwise/depthwise_weights",
        "op": "Const"
      },
      {
        "input": [],
        "attr": {
          "value": {
            "tensor": {
              "floatVal": [],
              "doubleVal": [],
              "intVal": [],
              "stringVal": [],
              "scomplexVal": [],
              "int64Val": [],
              "boolVal": [],
              "uint32Val": [],
              "uint64Val": [],
              "dtype": 1,
              "tensorShape": {
                "dim": [
                  {
                    "size": "32"
                  }
                ]
              }
            }
          },
          "dtype": {
            "type": 1
          }
        },
        "name": "FeatureExtractor/MobilenetV1/MobilenetV1/Conv2d_1_depthwise/BatchNorm/batchnorm/mul",
        "op": "Const"
      },
      {
        "input": [],
        "attr": {
          "value": {
            "tensor": {
              "floatVal": [],
              "doubleVal": [],
              "intVal": [],
              "stringVal": [],
              "scomplexVal": [],
              "int64Val": [],
              "boolVal": [],
              "uint32Val": [],
              "uint64Val": [],
              "dtype": 1,
              "tensorShape": {
                "dim": [
                  {
                    "size": "32"
                  }
                ]
              }
            }
          },
          "dtype": {
            "type": 1
          }
        },
        "name": "FeatureExtractor/MobilenetV1/MobilenetV1/Conv2d_1_depthwise/BatchNorm/batchnorm/sub",
        "op": "Const"
      },
      {
        "input": [],
        "attr": {
          "value": {
            "tensor": {
              "floatVal": [],
              "doubleVal": [],
              "intVal": [],
              "stringVal": [],
              "scomplexVal": [],
              "int64Val": [],
              "boolVal": [],
              "uint32Val": [],
              "uint64Val": [],
              "dtype": 1,
              "tensorShape": {
                "dim": [
                  {
                    "size": "1"
                  },
                  {
                    "size": "1"
                  },
                  {
                    "size": "32"
                  },
                  {
                    "size": "64"
                  }
                ]
              }
            }
          },
          "dtype": {
            "type": 1
          }
        },
        "name": "FeatureExtractor/MobilenetV1/MobilenetV1/Conv2d_1_pointwise/Conv2D/merged_input",
        "op": "Const"
      },
      {
        "input": [],
        "attr": {
          "value": {
            "tensor": {
              "floatVal": [],
              "doubleVal": [],
              "intVal": [],
              "stringVal": [],
              "scomplexVal": [],
              "int64Val": [],
              "boolVal": [],
              "uint32Val": [],
              "uint64Val": [],
              "dtype": 1,
              "tensorShape": {
                "dim": [
                  {
                    "size": "64"
                  }
                ]
              }
            }
          },
          "dtype": {
            "type": 1
          }
        },
        "name": "FeatureExtractor/MobilenetV1/MobilenetV1/Conv2d_1_pointwise/BatchNorm/batchnorm/sub",
        "op": "Const"
      },
      {
        "input": [],
        "attr": {
          "value": {
            "tensor": {
              "floatVal": [],
              "doubleVal": [],
              "intVal": [],
              "stringVal": [],
              "scomplexVal": [],
              "int64Val": [],
              "boolVal": [],
              "uint32Val": [],
              "uint64Val": [],
              "dtype": 1,
              "tensorShape": {
                "dim": [
                  {
                    "size": "3"
                  },
                  {
                    "size": "3"
                  },
                  {
                    "size": "64"
                  },
                  {
                    "size": "1"
                  }
                ]
              }
            }
          },
          "dtype": {
            "type": 1
          }
        },
        "name": "FeatureExtractor/MobilenetV1/Conv2d_2_depthwise/depthwise_weights",
        "op": "Const"
      },
      {
        "input": [],
        "attr": {
          "value": {
            "tensor": {
              "floatVal": [],
              "doubleVal": [],
              "intVal": [],
              "stringVal": [],
              "scomplexVal": [],
              "int64Val": [],
              "boolVal": [],
              "uint32Val": [],
              "uint64Val": [],
              "dtype": 1,
              "tensorShape": {
                "dim": [
                  {
                    "size": "64"
                  }
                ]
              }
            }
          },
          "dtype": {
            "type": 1
          }
        },
        "name": "FeatureExtractor/MobilenetV1/MobilenetV1/Conv2d_2_depthwise/BatchNorm/batchnorm/mul",
        "op": "Const"
      },
      {
        "input": [],
        "attr": {
          "dtype": {
            "type": 1
          },
          "value": {
            "tensor": {
              "floatVal": [],
              "doubleVal": [],
              "intVal": [],
              "stringVal": [],
              "scomplexVal": [],
              "int64Val": [],
              "boolVal": [],
              "uint32Val": [],
              "uint64Val": [],
              "dtype": 1,
              "tensorShape": {
                "dim": [
                  {
                    "size": "64"
                  }
                ]
              }
            }
          }
        },
        "name": "FeatureExtractor/MobilenetV1/MobilenetV1/Conv2d_2_depthwise/BatchNorm/batchnorm/sub",
        "op": "Const"
      },
      {
        "input": [],
        "attr": {
          "value": {
            "tensor": {
              "floatVal": [],
              "doubleVal": [],
              "intVal": [],
              "stringVal": [],
              "scomplexVal": [],
              "int64Val": [],
              "boolVal": [],
              "uint32Val": [],
              "uint64Val": [],
              "dtype": 1,
              "tensorShape": {
                "dim": [
                  {
                    "size": "1"
                  },
                  {
                    "size": "1"
                  },
                  {
                    "size": "64"
                  },
                  {
                    "size": "128"
                  }
                ]
              }
            }
          },
          "dtype": {
            "type": 1
          }
        },
        "name": "FeatureExtractor/MobilenetV1/MobilenetV1/Conv2d_2_pointwise/Conv2D/merged_input",
        "op": "Const"
      },
      {
        "input": [],
        "attr": {
          "value": {
            "tensor": {
              "floatVal": [],
              "doubleVal": [],
              "intVal": [],
              "stringVal": [],
              "scomplexVal": [],
              "int64Val": [],
              "boolVal": [],
              "uint32Val": [],
              "uint64Val": [],
              "dtype": 1,
              "tensorShape": {
                "dim": [
                  {
                    "size": "128"
                  }
                ]
              }
            }
          },
          "dtype": {
            "type": 1
          }
        },
        "name": "FeatureExtractor/MobilenetV1/MobilenetV1/Conv2d_2_pointwise/BatchNorm/batchnorm/sub",
        "op": "Const"
      },
      {
        "input": [],
        "attr": {
          "value": {
            "tensor": {
              "floatVal": [],
              "doubleVal": [],
              "intVal": [],
              "stringVal": [],
              "scomplexVal": [],
              "int64Val": [],
              "boolVal": [],
              "uint32Val": [],
              "uint64Val": [],
              "dtype": 1,
              "tensorShape": {
                "dim": [
                  {
                    "size": "3"
                  },
                  {
                    "size": "3"
                  },
                  {
                    "size": "128"
                  },
                  {
                    "size": "1"
                  }
                ]
              }
            }
          },
          "dtype": {
            "type": 1
          }
        },
        "name": "FeatureExtractor/MobilenetV1/Conv2d_3_depthwise/depthwise_weights",
        "op": "Const"
      },
      {
        "input": [],
        "attr": {
          "value": {
            "tensor": {
              "floatVal": [],
              "doubleVal": [],
              "intVal": [],
              "stringVal": [],
              "scomplexVal": [],
              "int64Val": [],
              "boolVal": [],
              "uint32Val": [],
              "uint64Val": [],
              "dtype": 1,
              "tensorShape": {
                "dim": [
                  {
                    "size": "128"
                  }
                ]
              }
            }
          },
          "dtype": {
            "type": 1
          }
        },
        "name": "FeatureExtractor/MobilenetV1/MobilenetV1/Conv2d_3_depthwise/BatchNorm/batchnorm/mul",
        "op": "Const"
      },
      {
        "input": [],
        "attr": {
          "value": {
            "tensor": {
              "floatVal": [],
              "doubleVal": [],
              "intVal": [],
              "stringVal": [],
              "scomplexVal": [],
              "int64Val": [],
              "boolVal": [],
              "uint32Val": [],
              "uint64Val": [],
              "dtype": 1,
              "tensorShape": {
                "dim": [
                  {
                    "size": "128"
                  }
                ]
              }
            }
          },
          "dtype": {
            "type": 1
          }
        },
        "name": "FeatureExtractor/MobilenetV1/MobilenetV1/Conv2d_3_depthwise/BatchNorm/batchnorm/sub",
        "op": "Const"
      },
      {
        "input": [],
        "attr": {
          "value": {
            "tensor": {
              "floatVal": [],
              "doubleVal": [],
              "intVal": [],
              "stringVal": [],
              "scomplexVal": [],
              "int64Val": [],
              "boolVal": [],
              "uint32Val": [],
              "uint64Val": [],
              "dtype": 1,
              "tensorShape": {
                "dim": [
                  {
                    "size": "1"
                  },
                  {
                    "size": "1"
                  },
                  {
                    "size": "128"
                  },
                  {
                    "size": "128"
                  }
                ]
              }
            }
          },
          "dtype": {
            "type": 1
          }
        },
        "name": "FeatureExtractor/MobilenetV1/MobilenetV1/Conv2d_3_pointwise/Conv2D/merged_input",
        "op": "Const"
      },
      {
        "input": [],
        "attr": {
          "value": {
            "tensor": {
              "floatVal": [],
              "doubleVal": [],
              "intVal": [],
              "stringVal": [],
              "scomplexVal": [],
              "int64Val": [],
              "boolVal": [],
              "uint32Val": [],
              "uint64Val": [],
              "dtype": 1,
              "tensorShape": {
                "dim": [
                  {
                    "size": "128"
                  }
                ]
              }
            }
          },
          "dtype": {
            "type": 1
          }
        },
        "name": "FeatureExtractor/MobilenetV1/MobilenetV1/Conv2d_3_pointwise/BatchNorm/batchnorm/sub",
        "op": "Const"
      },
      {
        "input": [],
        "attr": {
          "value": {
            "tensor": {
              "floatVal": [],
              "doubleVal": [],
              "intVal": [],
              "stringVal": [],
              "scomplexVal": [],
              "int64Val": [],
              "boolVal": [],
              "uint32Val": [],
              "uint64Val": [],
              "dtype": 1,
              "tensorShape": {
                "dim": [
                  {
                    "size": "3"
                  },
                  {
                    "size": "3"
                  },
                  {
                    "size": "128"
                  },
                  {
                    "size": "1"
                  }
                ]
              }
            }
          },
          "dtype": {
            "type": 1
          }
        },
        "name": "FeatureExtractor/MobilenetV1/Conv2d_4_depthwise/depthwise_weights",
        "op": "Const"
      },
      {
        "input": [],
        "attr": {
          "value": {
            "tensor": {
              "floatVal": [],
              "doubleVal": [],
              "intVal": [],
              "stringVal": [],
              "scomplexVal": [],
              "int64Val": [],
              "boolVal": [],
              "uint32Val": [],
              "uint64Val": [],
              "dtype": 1,
              "tensorShape": {
                "dim": [
                  {
                    "size": "128"
                  }
                ]
              }
            }
          },
          "dtype": {
            "type": 1
          }
        },
        "name": "FeatureExtractor/MobilenetV1/MobilenetV1/Conv2d_4_depthwise/BatchNorm/batchnorm/mul",
        "op": "Const"
      },
      {
        "input": [],
        "attr": {
          "value": {
            "tensor": {
              "floatVal": [],
              "doubleVal": [],
              "intVal": [],
              "stringVal": [],
              "scomplexVal": [],
              "int64Val": [],
              "boolVal": [],
              "uint32Val": [],
              "uint64Val": [],
              "dtype": 1,
              "tensorShape": {
                "dim": [
                  {
                    "size": "128"
                  }
                ]
              }
            }
          },
          "dtype": {
            "type": 1
          }
        },
        "name": "FeatureExtractor/MobilenetV1/MobilenetV1/Conv2d_4_depthwise/BatchNorm/batchnorm/sub",
        "op": "Const"
      },
      {
        "input": [],
        "attr": {
          "value": {
            "tensor": {
              "floatVal": [],
              "doubleVal": [],
              "intVal": [],
              "stringVal": [],
              "scomplexVal": [],
              "int64Val": [],
              "boolVal": [],
              "uint32Val": [],
              "uint64Val": [],
              "dtype": 1,
              "tensorShape": {
                "dim": [
                  {
                    "size": "1"
                  },
                  {
                    "size": "1"
                  },
                  {
                    "size": "128"
                  },
                  {
                    "size": "256"
                  }
                ]
              }
            }
          },
          "dtype": {
            "type": 1
          }
        },
        "name": "FeatureExtractor/MobilenetV1/MobilenetV1/Conv2d_4_pointwise/Conv2D/merged_input",
        "op": "Const"
      },
      {
        "input": [],
        "attr": {
          "value": {
            "tensor": {
              "floatVal": [],
              "doubleVal": [],
              "intVal": [],
              "stringVal": [],
              "scomplexVal": [],
              "int64Val": [],
              "boolVal": [],
              "uint32Val": [],
              "uint64Val": [],
              "dtype": 1,
              "tensorShape": {
                "dim": [
                  {
                    "size": "256"
                  }
                ]
              }
            }
          },
          "dtype": {
            "type": 1
          }
        },
        "name": "FeatureExtractor/MobilenetV1/MobilenetV1/Conv2d_4_pointwise/BatchNorm/batchnorm/sub",
        "op": "Const"
      },
      {
        "input": [],
        "attr": {
          "value": {
            "tensor": {
              "floatVal": [],
              "doubleVal": [],
              "intVal": [],
              "stringVal": [],
              "scomplexVal": [],
              "int64Val": [],
              "boolVal": [],
              "uint32Val": [],
              "uint64Val": [],
              "dtype": 1,
              "tensorShape": {
                "dim": [
                  {
                    "size": "3"
                  },
                  {
                    "size": "3"
                  },
                  {
                    "size": "256"
                  },
                  {
                    "size": "1"
                  }
                ]
              }
            }
          },
          "dtype": {
            "type": 1
          }
        },
        "name": "FeatureExtractor/MobilenetV1/Conv2d_5_depthwise/depthwise_weights",
        "op": "Const"
      },
      {
        "input": [],
        "attr": {
          "value": {
            "tensor": {
              "floatVal": [],
              "doubleVal": [],
              "intVal": [],
              "stringVal": [],
              "scomplexVal": [],
              "int64Val": [],
              "boolVal": [],
              "uint32Val": [],
              "uint64Val": [],
              "dtype": 1,
              "tensorShape": {
                "dim": [
                  {
                    "size": "256"
                  }
                ]
              }
            }
          },
          "dtype": {
            "type": 1
          }
        },
        "name": "FeatureExtractor/MobilenetV1/MobilenetV1/Conv2d_5_depthwise/BatchNorm/batchnorm/mul",
        "op": "Const"
      },
      {
        "input": [],
        "attr": {
          "value": {
            "tensor": {
              "floatVal": [],
              "doubleVal": [],
              "intVal": [],
              "stringVal": [],
              "scomplexVal": [],
              "int64Val": [],
              "boolVal": [],
              "uint32Val": [],
              "uint64Val": [],
              "dtype": 1,
              "tensorShape": {
                "dim": [
                  {
                    "size": "256"
                  }
                ]
              }
            }
          },
          "dtype": {
            "type": 1
          }
        },
        "name": "FeatureExtractor/MobilenetV1/MobilenetV1/Conv2d_5_depthwise/BatchNorm/batchnorm/sub",
        "op": "Const"
      },
      {
        "input": [],
        "attr": {
          "value": {
            "tensor": {
              "floatVal": [],
              "doubleVal": [],
              "intVal": [],
              "stringVal": [],
              "scomplexVal": [],
              "int64Val": [],
              "boolVal": [],
              "uint32Val": [],
              "uint64Val": [],
              "dtype": 1,
              "tensorShape": {
                "dim": [
                  {
                    "size": "1"
                  },
                  {
                    "size": "1"
                  },
                  {
                    "size": "256"
                  },
                  {
                    "size": "256"
                  }
                ]
              }
            }
          },
          "dtype": {
            "type": 1
          }
        },
        "name": "FeatureExtractor/MobilenetV1/MobilenetV1/Conv2d_5_pointwise/Conv2D/merged_input",
        "op": "Const"
      },
      {
        "input": [],
        "attr": {
          "value": {
            "tensor": {
              "floatVal": [],
              "doubleVal": [],
              "intVal": [],
              "stringVal": [],
              "scomplexVal": [],
              "int64Val": [],
              "boolVal": [],
              "uint32Val": [],
              "uint64Val": [],
              "dtype": 1,
              "tensorShape": {
                "dim": [
                  {
                    "size": "256"
                  }
                ]
              }
            }
          },
          "dtype": {
            "type": 1
          }
        },
        "name": "FeatureExtractor/MobilenetV1/MobilenetV1/Conv2d_5_pointwise/BatchNorm/batchnorm/sub",
        "op": "Const"
      },
      {
        "input": [],
        "attr": {
          "value": {
            "tensor": {
              "floatVal": [],
              "doubleVal": [],
              "intVal": [],
              "stringVal": [],
              "scomplexVal": [],
              "int64Val": [],
              "boolVal": [],
              "uint32Val": [],
              "uint64Val": [],
              "dtype": 1,
              "tensorShape": {
                "dim": [
                  {
                    "size": "3"
                  },
                  {
                    "size": "3"
                  },
                  {
                    "size": "256"
                  },
                  {
                    "size": "1"
                  }
                ]
              }
            }
          },
          "dtype": {
            "type": 1
          }
        },
        "name": "FeatureExtractor/MobilenetV1/Conv2d_6_depthwise/depthwise_weights",
        "op": "Const"
      },
      {
        "input": [],
        "attr": {
          "value": {
            "tensor": {
              "floatVal": [],
              "doubleVal": [],
              "intVal": [],
              "stringVal": [],
              "scomplexVal": [],
              "int64Val": [],
              "boolVal": [],
              "uint32Val": [],
              "uint64Val": [],
              "dtype": 1,
              "tensorShape": {
                "dim": [
                  {
                    "size": "256"
                  }
                ]
              }
            }
          },
          "dtype": {
            "type": 1
          }
        },
        "name": "FeatureExtractor/MobilenetV1/MobilenetV1/Conv2d_6_depthwise/BatchNorm/batchnorm/mul",
        "op": "Const"
      },
      {
        "input": [],
        "attr": {
          "dtype": {
            "type": 1
          },
          "value": {
            "tensor": {
              "floatVal": [],
              "doubleVal": [],
              "intVal": [],
              "stringVal": [],
              "scomplexVal": [],
              "int64Val": [],
              "boolVal": [],
              "uint32Val": [],
              "uint64Val": [],
              "dtype": 1,
              "tensorShape": {
                "dim": [
                  {
                    "size": "256"
                  }
                ]
              }
            }
          }
        },
        "name": "FeatureExtractor/MobilenetV1/MobilenetV1/Conv2d_6_depthwise/BatchNorm/batchnorm/sub",
        "op": "Const"
      },
      {
        "input": [],
        "attr": {
          "value": {
            "tensor": {
              "floatVal": [],
              "doubleVal": [],
              "intVal": [],
              "stringVal": [],
              "scomplexVal": [],
              "int64Val": [],
              "boolVal": [],
              "uint32Val": [],
              "uint64Val": [],
              "dtype": 1,
              "tensorShape": {
                "dim": [
                  {
                    "size": "1"
                  },
                  {
                    "size": "1"
                  },
                  {
                    "size": "256"
                  },
                  {
                    "size": "512"
                  }
                ]
              }
            }
          },
          "dtype": {
            "type": 1
          }
        },
        "name": "FeatureExtractor/MobilenetV1/MobilenetV1/Conv2d_6_pointwise/Conv2D/merged_input",
        "op": "Const"
      },
      {
        "input": [],
        "attr": {
          "value": {
            "tensor": {
              "floatVal": [],
              "doubleVal": [],
              "intVal": [],
              "stringVal": [],
              "scomplexVal": [],
              "int64Val": [],
              "boolVal": [],
              "uint32Val": [],
              "uint64Val": [],
              "dtype": 1,
              "tensorShape": {
                "dim": [
                  {
                    "size": "512"
                  }
                ]
              }
            }
          },
          "dtype": {
            "type": 1
          }
        },
        "name": "FeatureExtractor/MobilenetV1/MobilenetV1/Conv2d_6_pointwise/BatchNorm/batchnorm/sub",
        "op": "Const"
      },
      {
        "input": [],
        "attr": {
          "dtype": {
            "type": 1
          },
          "value": {
            "tensor": {
              "floatVal": [],
              "doubleVal": [],
              "intVal": [],
              "stringVal": [],
              "scomplexVal": [],
              "int64Val": [],
              "boolVal": [],
              "uint32Val": [],
              "uint64Val": [],
              "dtype": 1,
              "tensorShape": {
                "dim": [
                  {
                    "size": "3"
                  },
                  {
                    "size": "3"
                  },
                  {
                    "size": "512"
                  },
                  {
                    "size": "1"
                  }
                ]
              }
            }
          }
        },
        "name": "FeatureExtractor/MobilenetV1/Conv2d_7_depthwise/depthwise_weights",
        "op": "Const"
      },
      {
        "input": [],
        "attr": {
          "value": {
            "tensor": {
              "floatVal": [],
              "doubleVal": [],
              "intVal": [],
              "stringVal": [],
              "scomplexVal": [],
              "int64Val": [],
              "boolVal": [],
              "uint32Val": [],
              "uint64Val": [],
              "dtype": 1,
              "tensorShape": {
                "dim": [
                  {
                    "size": "512"
                  }
                ]
              }
            }
          },
          "dtype": {
            "type": 1
          }
        },
        "name": "FeatureExtractor/MobilenetV1/MobilenetV1/Conv2d_7_depthwise/BatchNorm/batchnorm/mul",
        "op": "Const"
      },
      {
        "input": [],
        "attr": {
          "value": {
            "tensor": {
              "floatVal": [],
              "doubleVal": [],
              "intVal": [],
              "stringVal": [],
              "scomplexVal": [],
              "int64Val": [],
              "boolVal": [],
              "uint32Val": [],
              "uint64Val": [],
              "dtype": 1,
              "tensorShape": {
                "dim": [
                  {
                    "size": "512"
                  }
                ]
              }
            }
          },
          "dtype": {
            "type": 1
          }
        },
        "name": "FeatureExtractor/MobilenetV1/MobilenetV1/Conv2d_7_depthwise/BatchNorm/batchnorm/sub",
        "op": "Const"
      },
      {
        "input": [],
        "attr": {
          "dtype": {
            "type": 1
          },
          "value": {
            "tensor": {
              "floatVal": [],
              "doubleVal": [],
              "intVal": [],
              "stringVal": [],
              "scomplexVal": [],
              "int64Val": [],
              "boolVal": [],
              "uint32Val": [],
              "uint64Val": [],
              "dtype": 1,
              "tensorShape": {
                "dim": [
                  {
                    "size": "1"
                  },
                  {
                    "size": "1"
                  },
                  {
                    "size": "512"
                  },
                  {
                    "size": "512"
                  }
                ]
              }
            }
          }
        },
        "name": "FeatureExtractor/MobilenetV1/MobilenetV1/Conv2d_7_pointwise/Conv2D/merged_input",
        "op": "Const"
      },
      {
        "input": [],
        "attr": {
          "value": {
            "tensor": {
              "floatVal": [],
              "doubleVal": [],
              "intVal": [],
              "stringVal": [],
              "scomplexVal": [],
              "int64Val": [],
              "boolVal": [],
              "uint32Val": [],
              "uint64Val": [],
              "dtype": 1,
              "tensorShape": {
                "dim": [
                  {
                    "size": "512"
                  }
                ]
              }
            }
          },
          "dtype": {
            "type": 1
          }
        },
        "name": "FeatureExtractor/MobilenetV1/MobilenetV1/Conv2d_7_pointwise/BatchNorm/batchnorm/sub",
        "op": "Const"
      },
      {
        "input": [],
        "attr": {
          "value": {
            "tensor": {
              "floatVal": [],
              "doubleVal": [],
              "intVal": [],
              "stringVal": [],
              "scomplexVal": [],
              "int64Val": [],
              "boolVal": [],
              "uint32Val": [],
              "uint64Val": [],
              "dtype": 1,
              "tensorShape": {
                "dim": [
                  {
                    "size": "3"
                  },
                  {
                    "size": "3"
                  },
                  {
                    "size": "512"
                  },
                  {
                    "size": "1"
                  }
                ]
              }
            }
          },
          "dtype": {
            "type": 1
          }
        },
        "name": "FeatureExtractor/MobilenetV1/Conv2d_8_depthwise/depthwise_weights",
        "op": "Const"
      },
      {
        "input": [],
        "attr": {
          "value": {
            "tensor": {
              "floatVal": [],
              "doubleVal": [],
              "intVal": [],
              "stringVal": [],
              "scomplexVal": [],
              "int64Val": [],
              "boolVal": [],
              "uint32Val": [],
              "uint64Val": [],
              "dtype": 1,
              "tensorShape": {
                "dim": [
                  {
                    "size": "512"
                  }
                ]
              }
            }
          },
          "dtype": {
            "type": 1
          }
        },
        "name": "FeatureExtractor/MobilenetV1/MobilenetV1/Conv2d_8_depthwise/BatchNorm/batchnorm/mul",
        "op": "Const"
      },
      {
        "input": [],
        "attr": {
          "value": {
            "tensor": {
              "floatVal": [],
              "doubleVal": [],
              "intVal": [],
              "stringVal": [],
              "scomplexVal": [],
              "int64Val": [],
              "boolVal": [],
              "uint32Val": [],
              "uint64Val": [],
              "dtype": 1,
              "tensorShape": {
                "dim": [
                  {
                    "size": "512"
                  }
                ]
              }
            }
          },
          "dtype": {
            "type": 1
          }
        },
        "name": "FeatureExtractor/MobilenetV1/MobilenetV1/Conv2d_8_depthwise/BatchNorm/batchnorm/sub",
        "op": "Const"
      },
      {
        "input": [],
        "attr": {
          "value": {
            "tensor": {
              "floatVal": [],
              "doubleVal": [],
              "intVal": [],
              "stringVal": [],
              "scomplexVal": [],
              "int64Val": [],
              "boolVal": [],
              "uint32Val": [],
              "uint64Val": [],
              "dtype": 1,
              "tensorShape": {
                "dim": [
                  {
                    "size": "1"
                  },
                  {
                    "size": "1"
                  },
                  {
                    "size": "512"
                  },
                  {
                    "size": "512"
                  }
                ]
              }
            }
          },
          "dtype": {
            "type": 1
          }
        },
        "name": "FeatureExtractor/MobilenetV1/MobilenetV1/Conv2d_8_pointwise/Conv2D/merged_input",
        "op": "Const"
      },
      {
        "input": [],
        "attr": {
          "value": {
            "tensor": {
              "floatVal": [],
              "doubleVal": [],
              "intVal": [],
              "stringVal": [],
              "scomplexVal": [],
              "int64Val": [],
              "boolVal": [],
              "uint32Val": [],
              "uint64Val": [],
              "dtype": 1,
              "tensorShape": {
                "dim": [
                  {
                    "size": "512"
                  }
                ]
              }
            }
          },
          "dtype": {
            "type": 1
          }
        },
        "name": "FeatureExtractor/MobilenetV1/MobilenetV1/Conv2d_8_pointwise/BatchNorm/batchnorm/sub",
        "op": "Const"
      },
      {
        "input": [],
        "attr": {
          "value": {
            "tensor": {
              "floatVal": [],
              "doubleVal": [],
              "intVal": [],
              "stringVal": [],
              "scomplexVal": [],
              "int64Val": [],
              "boolVal": [],
              "uint32Val": [],
              "uint64Val": [],
              "dtype": 1,
              "tensorShape": {
                "dim": [
                  {
                    "size": "3"
                  },
                  {
                    "size": "3"
                  },
                  {
                    "size": "512"
                  },
                  {
                    "size": "1"
                  }
                ]
              }
            }
          },
          "dtype": {
            "type": 1
          }
        },
        "name": "FeatureExtractor/MobilenetV1/Conv2d_9_depthwise/depthwise_weights",
        "op": "Const"
      },
      {
        "input": [],
        "attr": {
          "value": {
            "tensor": {
              "floatVal": [],
              "doubleVal": [],
              "intVal": [],
              "stringVal": [],
              "scomplexVal": [],
              "int64Val": [],
              "boolVal": [],
              "uint32Val": [],
              "uint64Val": [],
              "dtype": 1,
              "tensorShape": {
                "dim": [
                  {
                    "size": "512"
                  }
                ]
              }
            }
          },
          "dtype": {
            "type": 1
          }
        },
        "name": "FeatureExtractor/MobilenetV1/MobilenetV1/Conv2d_9_depthwise/BatchNorm/batchnorm/mul",
        "op": "Const"
      },
      {
        "input": [],
        "attr": {
          "value": {
            "tensor": {
              "floatVal": [],
              "doubleVal": [],
              "intVal": [],
              "stringVal": [],
              "scomplexVal": [],
              "int64Val": [],
              "boolVal": [],
              "uint32Val": [],
              "uint64Val": [],
              "dtype": 1,
              "tensorShape": {
                "dim": [
                  {
                    "size": "512"
                  }
                ]
              }
            }
          },
          "dtype": {
            "type": 1
          }
        },
        "name": "FeatureExtractor/MobilenetV1/MobilenetV1/Conv2d_9_depthwise/BatchNorm/batchnorm/sub",
        "op": "Const"
      },
      {
        "input": [],
        "attr": {
          "dtype": {
            "type": 1
          },
          "value": {
            "tensor": {
              "floatVal": [],
              "doubleVal": [],
              "intVal": [],
              "stringVal": [],
              "scomplexVal": [],
              "int64Val": [],
              "boolVal": [],
              "uint32Val": [],
              "uint64Val": [],
              "dtype": 1,
              "tensorShape": {
                "dim": [
                  {
                    "size": "1"
                  },
                  {
                    "size": "1"
                  },
                  {
                    "size": "512"
                  },
                  {
                    "size": "512"
                  }
                ]
              }
            }
          }
        },
        "name": "FeatureExtractor/MobilenetV1/MobilenetV1/Conv2d_9_pointwise/Conv2D/merged_input",
        "op": "Const"
      },
      {
        "input": [],
        "attr": {
          "value": {
            "tensor": {
              "floatVal": [],
              "doubleVal": [],
              "intVal": [],
              "stringVal": [],
              "scomplexVal": [],
              "int64Val": [],
              "boolVal": [],
              "uint32Val": [],
              "uint64Val": [],
              "dtype": 1,
              "tensorShape": {
                "dim": [
                  {
                    "size": "512"
                  }
                ]
              }
            }
          },
          "dtype": {
            "type": 1
          }
        },
        "name": "FeatureExtractor/MobilenetV1/MobilenetV1/Conv2d_9_pointwise/BatchNorm/batchnorm/sub",
        "op": "Const"
      },
      {
        "input": [],
        "attr": {
          "value": {
            "tensor": {
              "floatVal": [],
              "doubleVal": [],
              "intVal": [],
              "stringVal": [],
              "scomplexVal": [],
              "int64Val": [],
              "boolVal": [],
              "uint32Val": [],
              "uint64Val": [],
              "dtype": 1,
              "tensorShape": {
                "dim": [
                  {
                    "size": "3"
                  },
                  {
                    "size": "3"
                  },
                  {
                    "size": "512"
                  },
                  {
                    "size": "1"
                  }
                ]
              }
            }
          },
          "dtype": {
            "type": 1
          }
        },
        "name": "FeatureExtractor/MobilenetV1/Conv2d_10_depthwise/depthwise_weights",
        "op": "Const"
      },
      {
        "input": [],
        "attr": {
          "value": {
            "tensor": {
              "floatVal": [],
              "doubleVal": [],
              "intVal": [],
              "stringVal": [],
              "scomplexVal": [],
              "int64Val": [],
              "boolVal": [],
              "uint32Val": [],
              "uint64Val": [],
              "dtype": 1,
              "tensorShape": {
                "dim": [
                  {
                    "size": "512"
                  }
                ]
              }
            }
          },
          "dtype": {
            "type": 1
          }
        },
        "name": "FeatureExtractor/MobilenetV1/MobilenetV1/Conv2d_10_depthwise/BatchNorm/batchnorm/mul",
        "op": "Const"
      },
      {
        "input": [],
        "attr": {
          "value": {
            "tensor": {
              "floatVal": [],
              "doubleVal": [],
              "intVal": [],
              "stringVal": [],
              "scomplexVal": [],
              "int64Val": [],
              "boolVal": [],
              "uint32Val": [],
              "uint64Val": [],
              "dtype": 1,
              "tensorShape": {
                "dim": [
                  {
                    "size": "512"
                  }
                ]
              }
            }
          },
          "dtype": {
            "type": 1
          }
        },
        "name": "FeatureExtractor/MobilenetV1/MobilenetV1/Conv2d_10_depthwise/BatchNorm/batchnorm/sub",
        "op": "Const"
      },
      {
        "input": [],
        "attr": {
          "value": {
            "tensor": {
              "floatVal": [],
              "doubleVal": [],
              "intVal": [],
              "stringVal": [],
              "scomplexVal": [],
              "int64Val": [],
              "boolVal": [],
              "uint32Val": [],
              "uint64Val": [],
              "dtype": 1,
              "tensorShape": {
                "dim": [
                  {
                    "size": "1"
                  },
                  {
                    "size": "1"
                  },
                  {
                    "size": "512"
                  },
                  {
                    "size": "512"
                  }
                ]
              }
            }
          },
          "dtype": {
            "type": 1
          }
        },
        "name": "FeatureExtractor/MobilenetV1/MobilenetV1/Conv2d_10_pointwise/Conv2D/merged_input",
        "op": "Const"
      },
      {
        "input": [],
        "attr": {
          "value": {
            "tensor": {
              "floatVal": [],
              "doubleVal": [],
              "intVal": [],
              "stringVal": [],
              "scomplexVal": [],
              "int64Val": [],
              "boolVal": [],
              "uint32Val": [],
              "uint64Val": [],
              "dtype": 1,
              "tensorShape": {
                "dim": [
                  {
                    "size": "512"
                  }
                ]
              }
            }
          },
          "dtype": {
            "type": 1
          }
        },
        "name": "FeatureExtractor/MobilenetV1/MobilenetV1/Conv2d_10_pointwise/BatchNorm/batchnorm/sub",
        "op": "Const"
      },
      {
        "input": [],
        "attr": {
          "value": {
            "tensor": {
              "floatVal": [],
              "doubleVal": [],
              "intVal": [],
              "stringVal": [],
              "scomplexVal": [],
              "int64Val": [],
              "boolVal": [],
              "uint32Val": [],
              "uint64Val": [],
              "dtype": 1,
              "tensorShape": {
                "dim": [
                  {
                    "size": "3"
                  },
                  {
                    "size": "3"
                  },
                  {
                    "size": "512"
                  },
                  {
                    "size": "1"
                  }
                ]
              }
            }
          },
          "dtype": {
            "type": 1
          }
        },
        "name": "FeatureExtractor/MobilenetV1/Conv2d_11_depthwise/depthwise_weights",
        "op": "Const"
      },
      {
        "input": [],
        "attr": {
          "value": {
            "tensor": {
              "floatVal": [],
              "doubleVal": [],
              "intVal": [],
              "stringVal": [],
              "scomplexVal": [],
              "int64Val": [],
              "boolVal": [],
              "uint32Val": [],
              "uint64Val": [],
              "dtype": 1,
              "tensorShape": {
                "dim": [
                  {
                    "size": "512"
                  }
                ]
              }
            }
          },
          "dtype": {
            "type": 1
          }
        },
        "name": "FeatureExtractor/MobilenetV1/MobilenetV1/Conv2d_11_depthwise/BatchNorm/batchnorm/mul",
        "op": "Const"
      },
      {
        "input": [],
        "attr": {
          "value": {
            "tensor": {
              "floatVal": [],
              "doubleVal": [],
              "intVal": [],
              "stringVal": [],
              "scomplexVal": [],
              "int64Val": [],
              "boolVal": [],
              "uint32Val": [],
              "uint64Val": [],
              "dtype": 1,
              "tensorShape": {
                "dim": [
                  {
                    "size": "512"
                  }
                ]
              }
            }
          },
          "dtype": {
            "type": 1
          }
        },
        "name": "FeatureExtractor/MobilenetV1/MobilenetV1/Conv2d_11_depthwise/BatchNorm/batchnorm/sub",
        "op": "Const"
      },
      {
        "input": [],
        "attr": {
          "dtype": {
            "type": 1
          },
          "value": {
            "tensor": {
              "floatVal": [],
              "doubleVal": [],
              "intVal": [],
              "stringVal": [],
              "scomplexVal": [],
              "int64Val": [],
              "boolVal": [],
              "uint32Val": [],
              "uint64Val": [],
              "dtype": 1,
              "tensorShape": {
                "dim": [
                  {
                    "size": "1"
                  },
                  {
                    "size": "1"
                  },
                  {
                    "size": "512"
                  },
                  {
                    "size": "512"
                  }
                ]
              }
            }
          }
        },
        "name": "FeatureExtractor/MobilenetV1/MobilenetV1/Conv2d_11_pointwise/Conv2D/merged_input",
        "op": "Const"
      },
      {
        "input": [],
        "attr": {
          "value": {
            "tensor": {
              "floatVal": [],
              "doubleVal": [],
              "intVal": [],
              "stringVal": [],
              "scomplexVal": [],
              "int64Val": [],
              "boolVal": [],
              "uint32Val": [],
              "uint64Val": [],
              "dtype": 1,
              "tensorShape": {
                "dim": [
                  {
                    "size": "512"
                  }
                ]
              }
            }
          },
          "dtype": {
            "type": 1
          }
        },
        "name": "FeatureExtractor/MobilenetV1/MobilenetV1/Conv2d_11_pointwise/BatchNorm/batchnorm/sub",
        "op": "Const"
      },
      {
        "input": [],
        "attr": {
          "value": {
            "tensor": {
              "floatVal": [],
              "doubleVal": [],
              "intVal": [],
              "stringVal": [],
              "scomplexVal": [],
              "int64Val": [],
              "boolVal": [],
              "uint32Val": [],
              "uint64Val": [],
              "dtype": 1,
              "tensorShape": {
                "dim": [
                  {
                    "size": "3"
                  },
                  {
                    "size": "3"
                  },
                  {
                    "size": "512"
                  },
                  {
                    "size": "1"
                  }
                ]
              }
            }
          },
          "dtype": {
            "type": 1
          }
        },
        "name": "FeatureExtractor/MobilenetV1/Conv2d_12_depthwise/depthwise_weights",
        "op": "Const"
      },
      {
        "input": [],
        "attr": {
          "value": {
            "tensor": {
              "floatVal": [],
              "doubleVal": [],
              "intVal": [],
              "stringVal": [],
              "scomplexVal": [],
              "int64Val": [],
              "boolVal": [],
              "uint32Val": [],
              "uint64Val": [],
              "dtype": 1,
              "tensorShape": {
                "dim": [
                  {
                    "size": "512"
                  }
                ]
              }
            }
          },
          "dtype": {
            "type": 1
          }
        },
        "name": "FeatureExtractor/MobilenetV1/MobilenetV1/Conv2d_12_depthwise/BatchNorm/batchnorm/mul",
        "op": "Const"
      },
      {
        "input": [],
        "attr": {
          "value": {
            "tensor": {
              "floatVal": [],
              "doubleVal": [],
              "intVal": [],
              "stringVal": [],
              "scomplexVal": [],
              "int64Val": [],
              "boolVal": [],
              "uint32Val": [],
              "uint64Val": [],
              "dtype": 1,
              "tensorShape": {
                "dim": [
                  {
                    "size": "512"
                  }
                ]
              }
            }
          },
          "dtype": {
            "type": 1
          }
        },
        "name": "FeatureExtractor/MobilenetV1/MobilenetV1/Conv2d_12_depthwise/BatchNorm/batchnorm/sub",
        "op": "Const"
      },
      {
        "input": [],
        "attr": {
          "value": {
            "tensor": {
              "floatVal": [],
              "doubleVal": [],
              "intVal": [],
              "stringVal": [],
              "scomplexVal": [],
              "int64Val": [],
              "boolVal": [],
              "uint32Val": [],
              "uint64Val": [],
              "dtype": 1,
              "tensorShape": {
                "dim": [
                  {
                    "size": "1"
                  },
                  {
                    "size": "1"
                  },
                  {
                    "size": "512"
                  },
                  {
                    "size": "1024"
                  }
                ]
              }
            }
          },
          "dtype": {
            "type": 1
          }
        },
        "name": "FeatureExtractor/MobilenetV1/MobilenetV1/Conv2d_12_pointwise/Conv2D/merged_input",
        "op": "Const"
      },
      {
        "input": [],
        "attr": {
          "value": {
            "tensor": {
              "floatVal": [],
              "doubleVal": [],
              "intVal": [],
              "stringVal": [],
              "scomplexVal": [],
              "int64Val": [],
              "boolVal": [],
              "uint32Val": [],
              "uint64Val": [],
              "dtype": 1,
              "tensorShape": {
                "dim": [
                  {
                    "size": "1024"
                  }
                ]
              }
            }
          },
          "dtype": {
            "type": 1
          }
        },
        "name": "FeatureExtractor/MobilenetV1/MobilenetV1/Conv2d_12_pointwise/BatchNorm/batchnorm/sub",
        "op": "Const"
      },
      {
        "input": [],
        "attr": {
          "value": {
            "tensor": {
              "floatVal": [],
              "doubleVal": [],
              "intVal": [],
              "stringVal": [],
              "scomplexVal": [],
              "int64Val": [],
              "boolVal": [],
              "uint32Val": [],
              "uint64Val": [],
              "dtype": 1,
              "tensorShape": {
                "dim": [
                  {
                    "size": "3"
                  },
                  {
                    "size": "3"
                  },
                  {
                    "size": "1024"
                  },
                  {
                    "size": "1"
                  }
                ]
              }
            }
          },
          "dtype": {
            "type": 1
          }
        },
        "name": "FeatureExtractor/MobilenetV1/Conv2d_13_depthwise/depthwise_weights",
        "op": "Const"
      },
      {
        "input": [],
        "attr": {
          "value": {
            "tensor": {
              "floatVal": [],
              "doubleVal": [],
              "intVal": [],
              "stringVal": [],
              "scomplexVal": [],
              "int64Val": [],
              "boolVal": [],
              "uint32Val": [],
              "uint64Val": [],
              "dtype": 1,
              "tensorShape": {
                "dim": [
                  {
                    "size": "1024"
                  }
                ]
              }
            }
          },
          "dtype": {
            "type": 1
          }
        },
        "name": "FeatureExtractor/MobilenetV1/MobilenetV1/Conv2d_13_depthwise/BatchNorm/batchnorm/mul",
        "op": "Const"
      },
      {
        "input": [],
        "attr": {
          "value": {
            "tensor": {
              "floatVal": [],
              "doubleVal": [],
              "intVal": [],
              "stringVal": [],
              "scomplexVal": [],
              "int64Val": [],
              "boolVal": [],
              "uint32Val": [],
              "uint64Val": [],
              "dtype": 1,
              "tensorShape": {
                "dim": [
                  {
                    "size": "1024"
                  }
                ]
              }
            }
          },
          "dtype": {
            "type": 1
          }
        },
        "name": "FeatureExtractor/MobilenetV1/MobilenetV1/Conv2d_13_depthwise/BatchNorm/batchnorm/sub",
        "op": "Const"
      },
      {
        "input": [],
        "attr": {
          "value": {
            "tensor": {
              "floatVal": [],
              "doubleVal": [],
              "intVal": [],
              "stringVal": [],
              "scomplexVal": [],
              "int64Val": [],
              "boolVal": [],
              "uint32Val": [],
              "uint64Val": [],
              "dtype": 1,
              "tensorShape": {
                "dim": [
                  {
                    "size": "1"
                  },
                  {
                    "size": "1"
                  },
                  {
                    "size": "1024"
                  },
                  {
                    "size": "1024"
                  }
                ]
              }
            }
          },
          "dtype": {
            "type": 1
          }
        },
        "name": "FeatureExtractor/MobilenetV1/MobilenetV1/Conv2d_13_pointwise/Conv2D/merged_input",
        "op": "Const"
      },
      {
        "input": [],
        "attr": {
          "value": {
            "tensor": {
              "floatVal": [],
              "doubleVal": [],
              "intVal": [],
              "stringVal": [],
              "scomplexVal": [],
              "int64Val": [],
              "boolVal": [],
              "uint32Val": [],
              "uint64Val": [],
              "dtype": 1,
              "tensorShape": {
                "dim": [
                  {
                    "size": "1024"
                  }
                ]
              }
            }
          },
          "dtype": {
            "type": 1
          }
        },
        "name": "FeatureExtractor/MobilenetV1/MobilenetV1/Conv2d_13_pointwise/BatchNorm/batchnorm/sub",
        "op": "Const"
      },
      {
        "input": [],
        "attr": {
          "dtype": {
            "type": 1
          },
          "value": {
            "tensor": {
              "floatVal": [],
              "doubleVal": [],
              "intVal": [],
              "stringVal": [],
              "scomplexVal": [],
              "int64Val": [],
              "boolVal": [],
              "uint32Val": [],
              "uint64Val": [],
              "dtype": 1,
              "tensorShape": {
                "dim": [
                  {
                    "size": "1"
                  },
                  {
                    "size": "1"
                  },
                  {
                    "size": "1024"
                  },
                  {
                    "size": "256"
                  }
                ]
              }
            }
          }
        },
        "name": "FeatureExtractor/MobilenetV1/Conv2d_13_pointwise_1_Conv2d_2_1x1_256/Conv2D/merged_input",
        "op": "Const"
      },
      {
        "input": [],
        "attr": {
          "dtype": {
            "type": 1
          },
          "value": {
            "tensor": {
              "floatVal": [],
              "doubleVal": [],
              "intVal": [],
              "stringVal": [],
              "scomplexVal": [],
              "int64Val": [],
              "boolVal": [],
              "uint32Val": [],
              "uint64Val": [],
              "dtype": 1,
              "tensorShape": {
                "dim": [
                  {
                    "size": "256"
                  }
                ]
              }
            }
          }
        },
        "name": "FeatureExtractor/MobilenetV1/Conv2d_13_pointwise_1_Conv2d_2_1x1_256/BatchNorm/batchnorm/sub",
        "op": "Const"
      },
      {
        "input": [],
        "attr": {
          "value": {
            "tensor": {
              "floatVal": [],
              "doubleVal": [],
              "intVal": [],
              "stringVal": [],
              "scomplexVal": [],
              "int64Val": [],
              "boolVal": [],
              "uint32Val": [],
              "uint64Val": [],
              "dtype": 1,
              "tensorShape": {
                "dim": [
                  {
                    "size": "3"
                  },
                  {
                    "size": "3"
                  },
                  {
                    "size": "256"
                  },
                  {
                    "size": "512"
                  }
                ]
              }
            }
          },
          "dtype": {
            "type": 1
          }
        },
        "name": "FeatureExtractor/MobilenetV1/Conv2d_13_pointwise_2_Conv2d_2_3x3_s2_512/Conv2D/merged_input",
        "op": "Const"
      },
      {
        "input": [],
        "attr": {
          "value": {
            "tensor": {
              "floatVal": [],
              "doubleVal": [],
              "intVal": [],
              "stringVal": [],
              "scomplexVal": [],
              "int64Val": [],
              "boolVal": [],
              "uint32Val": [],
              "uint64Val": [],
              "dtype": 1,
              "tensorShape": {
                "dim": [
                  {
                    "size": "512"
                  }
                ]
              }
            }
          },
          "dtype": {
            "type": 1
          }
        },
        "name": "FeatureExtractor/MobilenetV1/Conv2d_13_pointwise_2_Conv2d_2_3x3_s2_512/BatchNorm/batchnorm/sub",
        "op": "Const"
      },
      {
        "input": [],
        "attr": {
          "value": {
            "tensor": {
              "floatVal": [],
              "doubleVal": [],
              "intVal": [],
              "stringVal": [],
              "scomplexVal": [],
              "int64Val": [],
              "boolVal": [],
              "uint32Val": [],
              "uint64Val": [],
              "dtype": 1,
              "tensorShape": {
                "dim": [
                  {
                    "size": "1"
                  },
                  {
                    "size": "1"
                  },
                  {
                    "size": "512"
                  },
                  {
                    "size": "128"
                  }
                ]
              }
            }
          },
          "dtype": {
            "type": 1
          }
        },
        "name": "FeatureExtractor/MobilenetV1/Conv2d_13_pointwise_1_Conv2d_3_1x1_128/Conv2D/merged_input",
        "op": "Const"
      },
      {
        "input": [],
        "attr": {
          "value": {
            "tensor": {
              "floatVal": [],
              "doubleVal": [],
              "intVal": [],
              "stringVal": [],
              "scomplexVal": [],
              "int64Val": [],
              "boolVal": [],
              "uint32Val": [],
              "uint64Val": [],
              "dtype": 1,
              "tensorShape": {
                "dim": [
                  {
                    "size": "128"
                  }
                ]
              }
            }
          },
          "dtype": {
            "type": 1
          }
        },
        "name": "FeatureExtractor/MobilenetV1/Conv2d_13_pointwise_1_Conv2d_3_1x1_128/BatchNorm/batchnorm/sub",
        "op": "Const"
      },
      {
        "input": [],
        "attr": {
          "value": {
            "tensor": {
              "floatVal": [],
              "doubleVal": [],
              "intVal": [],
              "stringVal": [],
              "scomplexVal": [],
              "int64Val": [],
              "boolVal": [],
              "uint32Val": [],
              "uint64Val": [],
              "dtype": 1,
              "tensorShape": {
                "dim": [
                  {
                    "size": "3"
                  },
                  {
                    "size": "3"
                  },
                  {
                    "size": "128"
                  },
                  {
                    "size": "256"
                  }
                ]
              }
            }
          },
          "dtype": {
            "type": 1
          }
        },
        "name": "FeatureExtractor/MobilenetV1/Conv2d_13_pointwise_2_Conv2d_3_3x3_s2_256/Conv2D/merged_input",
        "op": "Const"
      },
      {
        "input": [],
        "attr": {
          "value": {
            "tensor": {
              "floatVal": [],
              "doubleVal": [],
              "intVal": [],
              "stringVal": [],
              "scomplexVal": [],
              "int64Val": [],
              "boolVal": [],
              "uint32Val": [],
              "uint64Val": [],
              "dtype": 1,
              "tensorShape": {
                "dim": [
                  {
                    "size": "256"
                  }
                ]
              }
            }
          },
          "dtype": {
            "type": 1
          }
        },
        "name": "FeatureExtractor/MobilenetV1/Conv2d_13_pointwise_2_Conv2d_3_3x3_s2_256/BatchNorm/batchnorm/sub",
        "op": "Const"
      },
      {
        "input": [],
        "attr": {
          "value": {
            "tensor": {
              "floatVal": [],
              "doubleVal": [],
              "intVal": [],
              "stringVal": [],
              "scomplexVal": [],
              "int64Val": [],
              "boolVal": [],
              "uint32Val": [],
              "uint64Val": [],
              "dtype": 1,
              "tensorShape": {
                "dim": [
                  {
                    "size": "1"
                  },
                  {
                    "size": "1"
                  },
                  {
                    "size": "256"
                  },
                  {
                    "size": "128"
                  }
                ]
              }
            }
          },
          "dtype": {
            "type": 1
          }
        },
        "name": "FeatureExtractor/MobilenetV1/Conv2d_13_pointwise_1_Conv2d_4_1x1_128/Conv2D/merged_input",
        "op": "Const"
      },
      {
        "input": [],
        "attr": {
          "value": {
            "tensor": {
              "floatVal": [],
              "doubleVal": [],
              "intVal": [],
              "stringVal": [],
              "scomplexVal": [],
              "int64Val": [],
              "boolVal": [],
              "uint32Val": [],
              "uint64Val": [],
              "dtype": 1,
              "tensorShape": {
                "dim": [
                  {
                    "size": "128"
                  }
                ]
              }
            }
          },
          "dtype": {
            "type": 1
          }
        },
        "name": "FeatureExtractor/MobilenetV1/Conv2d_13_pointwise_1_Conv2d_4_1x1_128/BatchNorm/batchnorm/sub",
        "op": "Const"
      },
      {
        "input": [],
        "attr": {
          "value": {
            "tensor": {
              "floatVal": [],
              "doubleVal": [],
              "intVal": [],
              "stringVal": [],
              "scomplexVal": [],
              "int64Val": [],
              "boolVal": [],
              "uint32Val": [],
              "uint64Val": [],
              "dtype": 1,
              "tensorShape": {
                "dim": [
                  {
                    "size": "3"
                  },
                  {
                    "size": "3"
                  },
                  {
                    "size": "128"
                  },
                  {
                    "size": "256"
                  }
                ]
              }
            }
          },
          "dtype": {
            "type": 1
          }
        },
        "name": "FeatureExtractor/MobilenetV1/Conv2d_13_pointwise_2_Conv2d_4_3x3_s2_256/Conv2D/merged_input",
        "op": "Const"
      },
      {
        "input": [],
        "attr": {
          "value": {
            "tensor": {
              "floatVal": [],
              "doubleVal": [],
              "intVal": [],
              "stringVal": [],
              "scomplexVal": [],
              "int64Val": [],
              "boolVal": [],
              "uint32Val": [],
              "uint64Val": [],
              "dtype": 1,
              "tensorShape": {
                "dim": [
                  {
                    "size": "256"
                  }
                ]
              }
            }
          },
          "dtype": {
            "type": 1
          }
        },
        "name": "FeatureExtractor/MobilenetV1/Conv2d_13_pointwise_2_Conv2d_4_3x3_s2_256/BatchNorm/batchnorm/sub",
        "op": "Const"
      },
      {
        "input": [],
        "attr": {
          "value": {
            "tensor": {
              "floatVal": [],
              "doubleVal": [],
              "intVal": [],
              "stringVal": [],
              "scomplexVal": [],
              "int64Val": [],
              "boolVal": [],
              "uint32Val": [],
              "uint64Val": [],
              "dtype": 1,
              "tensorShape": {
                "dim": [
                  {
                    "size": "1"
                  },
                  {
                    "size": "1"
                  },
                  {
                    "size": "256"
                  },
                  {
                    "size": "64"
                  }
                ]
              }
            }
          },
          "dtype": {
            "type": 1
          }
        },
        "name": "FeatureExtractor/MobilenetV1/Conv2d_13_pointwise_1_Conv2d_5_1x1_64/Conv2D/merged_input",
        "op": "Const"
      },
      {
        "input": [],
        "attr": {
          "value": {
            "tensor": {
              "floatVal": [],
              "doubleVal": [],
              "intVal": [],
              "stringVal": [],
              "scomplexVal": [],
              "int64Val": [],
              "boolVal": [],
              "uint32Val": [],
              "uint64Val": [],
              "dtype": 1,
              "tensorShape": {
                "dim": [
                  {
                    "size": "64"
                  }
                ]
              }
            }
          },
          "dtype": {
            "type": 1
          }
        },
        "name": "FeatureExtractor/MobilenetV1/Conv2d_13_pointwise_1_Conv2d_5_1x1_64/BatchNorm/batchnorm/sub",
        "op": "Const"
      },
      {
        "input": [],
        "attr": {
          "dtype": {
            "type": 1
          },
          "value": {
            "tensor": {
              "floatVal": [],
              "doubleVal": [],
              "intVal": [],
              "stringVal": [],
              "scomplexVal": [],
              "int64Val": [],
              "boolVal": [],
              "uint32Val": [],
              "uint64Val": [],
              "dtype": 1,
              "tensorShape": {
                "dim": [
                  {
                    "size": "3"
                  },
                  {
                    "size": "3"
                  },
                  {
                    "size": "64"
                  },
                  {
                    "size": "128"
                  }
                ]
              }
            }
          }
        },
        "name": "FeatureExtractor/MobilenetV1/Conv2d_13_pointwise_2_Conv2d_5_3x3_s2_128/Conv2D/merged_input",
        "op": "Const"
      },
      {
        "input": [],
        "attr": {
          "value": {
            "tensor": {
              "floatVal": [],
              "doubleVal": [],
              "intVal": [],
              "stringVal": [],
              "scomplexVal": [],
              "int64Val": [],
              "boolVal": [],
              "uint32Val": [],
              "uint64Val": [],
              "dtype": 1,
              "tensorShape": {
                "dim": [
                  {
                    "size": "128"
                  }
                ]
              }
            }
          },
          "dtype": {
            "type": 1
          }
        },
        "name": "FeatureExtractor/MobilenetV1/Conv2d_13_pointwise_2_Conv2d_5_3x3_s2_128/BatchNorm/batchnorm/sub",
        "op": "Const"
      },
      {
        "input": [],
        "attr": {
          "value": {
            "tensor": {
              "floatVal": [],
              "doubleVal": [],
              "intVal": [
                0
              ],
              "stringVal": [],
              "scomplexVal": [],
              "int64Val": [],
              "boolVal": [],
              "uint32Val": [],
              "uint64Val": [],
              "dtype": 3,
              "tensorShape": {
                "dim": [
                  {
                    "size": "1"
                  }
                ]
              }
            }
          },
          "dtype": {
            "type": 3
          }
        },
        "name": "Postprocessor/strided_slice/stack",
        "op": "Const"
      },
      {
        "input": [],
        "attr": {
          "dtype": {
            "type": 3
          },
          "value": {
            "tensor": {
              "floatVal": [],
              "doubleVal": [],
              "intVal": [
                1
              ],
              "stringVal": [],
              "scomplexVal": [],
              "int64Val": [],
              "boolVal": [],
              "uint32Val": [],
              "uint64Val": [],
              "dtype": 3,
              "tensorShape": {
                "dim": [
                  {
                    "size": "1"
                  }
                ]
              }
            }
          }
        },
        "name": "strided_slice_6/stack",
        "op": "Const"
      },
      {
        "input": [],
        "attr": {
          "value": {
            "tensor": {
              "floatVal": [],
              "doubleVal": [],
              "intVal": [
                6
              ],
              "stringVal": [],
              "scomplexVal": [],
              "int64Val": [],
              "boolVal": [],
              "uint32Val": [],
              "uint64Val": [],
              "dtype": 3,
              "tensorShape": {
                "dim": []
              }
            }
          },
          "dtype": {
            "type": 3
          }
        },
        "name": "BoxPredictor_5/stack/1",
        "op": "Const"
      },
      {
        "input": [],
        "attr": {
          "dtype": {
            "type": 3
          },
          "value": {
            "tensor": {
              "floatVal": [],
              "doubleVal": [],
              "intVal": [
                91
              ],
              "stringVal": [],
              "scomplexVal": [],
              "int64Val": [],
              "boolVal": [],
              "uint32Val": [],
              "uint64Val": [],
              "dtype": 3,
              "tensorShape": {
                "dim": []
              }
            }
          }
        },
        "name": "BoxPredictor_0/stack_1/2",
        "op": "Const"
      },
      {
        "input": [],
        "attr": {
          "value": {
            "tensor": {
              "floatVal": [],
              "doubleVal": [],
              "intVal": [
                1
              ],
              "stringVal": [],
              "scomplexVal": [],
              "int64Val": [],
              "boolVal": [],
              "uint32Val": [],
              "uint64Val": [],
              "dtype": 3,
              "tensorShape": {
                "dim": []
              }
            }
          },
          "dtype": {
            "type": 3
          }
        },
        "name": "MultipleGridAnchorGenerator/concat/axis",
        "op": "Const"
      },
      {
        "input": [],
        "attr": {
          "value": {
            "tensor": {
              "floatVal": [],
              "doubleVal": [],
              "intVal": [],
              "stringVal": [],
              "scomplexVal": [],
              "int64Val": [],
              "boolVal": [],
              "uint32Val": [],
              "uint64Val": [],
              "dtype": 3,
              "tensorShape": {
                "dim": [
                  {
                    "size": "3"
                  }
                ]
              }
            }
          },
          "dtype": {
            "type": 3
          }
        },
        "name": "Postprocessor/Slice/begin",
        "op": "Const"
      },
      {
        "input": [],
        "attr": {
          "value": {
            "tensor": {
              "floatVal": [],
              "doubleVal": [],
              "intVal": [],
              "stringVal": [],
              "scomplexVal": [],
              "int64Val": [],
              "boolVal": [],
              "uint32Val": [],
              "uint64Val": [],
              "dtype": 3,
              "tensorShape": {
                "dim": [
                  {
                    "size": "3"
                  }
                ]
              }
            }
          },
          "dtype": {
            "type": 3
          }
        },
        "name": "Postprocessor/Slice/size",
        "op": "Const"
      },
      {
        "input": [],
        "attr": {
          "dtype": {
            "type": 4
          },
          "shape": {
            "shape": {
              "dim": [
                {
                  "size": "-1"
                },
                {
                  "size": "-1"
                },
                {
                  "size": "-1"
                },
                {
                  "size": "3"
                }
              ]
            }
          }
        },
        "name": "image_tensor",
        "op": "Placeholder"
      },
      {
        "input": [
          "MultipleGridAnchorGenerator/Concatenate/concat/axis"
        ],
        "attr": {
          "parallel_iterations": {
            "i": "32"
          },
          "frame_name": {
            "s": [
              80,
              114,
              101,
              112,
              114,
              111,
              99,
              101,
              115,
              115,
              111,
              114,
              47,
              109,
              97,
              112,
              47,
              119,
              104,
              105,
              108,
              101,
              47,
              119,
              104,
              105,
              108,
              101,
              95,
              99,
              111,
              110,
              116,
              101,
              120,
              116
            ]
          },
          "T": {
            "type": 3
          },
          "is_constant": {
            "b": false
          }
        },
        "name": "Preprocessor/map/while/Enter",
        "op": "Enter"
      },
      {
        "input": [
          "image_tensor"
        ],
        "attr": {
          "SrcT": {
            "type": 4
          },
          "DstT": {
            "type": 1
          }
        },
        "name": "ToFloat",
        "op": "Cast"
      },
      {
        "input": [
          "Preprocessor/map/while/Enter",
          "Preprocessor/map/while/NextIteration"
        ],
        "attr": {
          "T": {
            "type": 3
          },
          "N": {
            "i": "2"
          }
        },
        "name": "Preprocessor/map/while/Merge",
        "op": "Merge"
      },
      {
        "input": [
          "ToFloat"
        ],
        "attr": {
          "out_type": {
            "type": 3
          },
          "T": {
            "type": 1
          }
        },
        "name": "Preprocessor/map/TensorArrayUnstack/Shape",
        "op": "Shape"
      },
      {
        "input": [
          "Preprocessor/map/TensorArrayUnstack/Shape",
          "Postprocessor/strided_slice/stack",
          "strided_slice_6/stack",
          "strided_slice_6/stack"
        ],
        "attr": {
          "shrink_axis_mask": {
            "i": "1"
          },
          "begin_mask": {
            "i": "0"
          },
          "ellipsis_mask": {
            "i": "0"
          },
          "new_axis_mask": {
            "i": "0"
          },
          "end_mask": {
            "i": "0"
          },
          "T": {
            "type": 3
          },
          "Index": {
            "type": 3
          }
        },
        "name": "Preprocessor/map/TensorArrayUnstack/strided_slice",
        "op": "StridedSlice"
      },
      {
        "input": [
          "Preprocessor/map/TensorArrayUnstack/strided_slice"
        ],
        "attr": {
          "tensor_array_name": {
            "s": []
          },
          "dtype": {
            "type": 1
          },
          "element_shape": {
            "shape": {
              "dim": [],
              "unknownRank": true
            }
          },
          "dynamic_size": {
            "b": false
          },
          "clear_after_read": {
            "b": true
          },
          "identical_element_shapes": {
            "b": true
          }
        },
        "name": "Preprocessor/map/TensorArray_1",
        "op": "TensorArrayV3"
      },
      {
        "input": [
          "MultipleGridAnchorGenerator/Concatenate/concat/axis",
          "Preprocessor/map/TensorArrayUnstack/strided_slice",
          "MultipleGridAnchorGenerator/concat/axis"
        ],
        "attr": {
          "Tidx": {
            "type": 3
          }
        },
        "name": "Preprocessor/map/TensorArrayUnstack/range",
        "op": "Range"
      },
      {
        "input": [
          "Preprocessor/map/TensorArrayUnstack/strided_slice"
        ],
        "attr": {
          "identical_element_shapes": {
            "b": true
          },
          "tensor_array_name": {
            "s": []
          },
          "dtype": {
            "type": 1
          },
          "element_shape": {
            "shape": {
              "dim": [],
              "unknownRank": true
            }
          },
          "clear_after_read": {
            "b": true
          },
          "dynamic_size": {
            "b": false
          }
        },
        "name": "Preprocessor/map/TensorArray",
        "op": "TensorArrayV3"
      },
      {
        "input": [
          "Preprocessor/map/TensorArrayUnstack/strided_slice"
        ],
        "attr": {
          "T": {
            "type": 3
          },
          "is_constant": {
            "b": true
          },
          "parallel_iterations": {
            "i": "32"
          },
          "frame_name": {
            "s": [
              80,
              114,
              101,
              112,
              114,
              111,
              99,
              101,
              115,
              115,
              111,
              114,
              47,
              109,
              97,
              112,
              47,
              119,
              104,
              105,
              108,
              101,
              47,
              119,
              104,
              105,
              108,
              101,
              95,
              99,
              111,
              110,
              116,
              101,
              120,
              116
            ]
          }
        },
        "name": "Preprocessor/map/while/Less/Enter",
        "op": "Enter"
      },
      {
        "input": [
          "Preprocessor/map/TensorArray_1:1"
        ],
        "attr": {
          "T": {
            "type": 1
          },
          "is_constant": {
            "b": false
          },
          "parallel_iterations": {
            "i": "32"
          },
          "frame_name": {
            "s": [
              80,
              114,
              101,
              112,
              114,
              111,
              99,
              101,
              115,
              115,
              111,
              114,
              47,
              109,
              97,
              112,
              47,
              119,
              104,
              105,
              108,
              101,
              47,
              119,
              104,
              105,
              108,
              101,
              95,
              99,
              111,
              110,
              116,
              101,
              120,
              116
            ]
          }
        },
        "name": "Preprocessor/map/while/Enter_1",
        "op": "Enter"
      },
      {
        "input": [
          "Preprocessor/map/TensorArray_1"
        ],
        "attr": {
          "T": {
            "type": 20
          },
          "is_constant": {
            "b": true
          },
          "parallel_iterations": {
            "i": "32"
          },
          "frame_name": {
            "s": [
              80,
              114,
              101,
              112,
              114,
              111,
              99,
              101,
              115,
              115,
              111,
              114,
              47,
              109,
              97,
              112,
              47,
              119,
              104,
              105,
              108,
              101,
              47,
              119,
              104,
              105,
              108,
              101,
              95,
              99,
              111,
              110,
              116,
              101,
              120,
              116
            ]
          }
        },
        "name": "Preprocessor/map/while/TensorArrayWrite/TensorArrayWriteV3/Enter",
        "op": "Enter"
      },
      {
        "input": [
          "Preprocessor/map/TensorArray"
        ],
        "attr": {
          "T": {
            "type": 20
          },
          "is_constant": {
            "b": true
          },
          "parallel_iterations": {
            "i": "32"
          },
          "frame_name": {
            "s": [
              80,
              114,
              101,
              112,
              114,
              111,
              99,
              101,
              115,
              115,
              111,
              114,
              47,
              109,
              97,
              112,
              47,
              119,
              104,
              105,
              108,
              101,
              47,
              119,
              104,
              105,
              108,
              101,
              95,
              99,
              111,
              110,
              116,
              101,
              120,
              116
            ]
          }
        },
        "name": "Preprocessor/map/while/TensorArrayReadV3/Enter",
        "op": "Enter"
      },
      {
        "input": [
          "Preprocessor/map/TensorArray",
          "Preprocessor/map/TensorArrayUnstack/range",
          "ToFloat",
          "Preprocessor/map/TensorArray:1"
        ],
        "attr": {
          "T": {
            "type": 1
          }
        },
        "name": "Preprocessor/map/TensorArrayUnstack/TensorArrayScatter/TensorArrayScatterV3",
        "op": "TensorArrayScatterV3"
      },
      {
        "input": [
          "Preprocessor/map/while/Merge",
          "Preprocessor/map/while/Less/Enter"
        ],
        "attr": {
          "T": {
            "type": 3
          }
        },
        "name": "Preprocessor/map/while/Less",
        "op": "Less"
      },
      {
        "input": [
          "Preprocessor/map/while/Enter_1",
          "Preprocessor/map/while/NextIteration_1"
        ],
        "attr": {
          "N": {
            "i": "2"
          },
          "T": {
            "type": 1
          }
        },
        "name": "Preprocessor/map/while/Merge_1",
        "op": "Merge"
      },
      {
        "input": [
          "Preprocessor/map/TensorArrayUnstack/TensorArrayScatter/TensorArrayScatterV3"
        ],
        "attr": {
          "T": {
            "type": 1
          },
          "is_constant": {
            "b": true
          },
          "parallel_iterations": {
            "i": "32"
          },
          "frame_name": {
            "s": [
              80,
              114,
              101,
              112,
              114,
              111,
              99,
              101,
              115,
              115,
              111,
              114,
              47,
              109,
              97,
              112,
              47,
              119,
              104,
              105,
              108,
              101,
              47,
              119,
              104,
              105,
              108,
              101,
              95,
              99,
              111,
              110,
              116,
              101,
              120,
              116
            ]
          }
        },
        "name": "Preprocessor/map/while/TensorArrayReadV3/Enter_1",
        "op": "Enter"
      },
      {
        "input": [
          "Preprocessor/map/while/Less"
        ],
        "attr": {},
        "name": "Preprocessor/map/while/LoopCond",
        "op": "LoopCond"
      },
      {
        "input": [
          "Preprocessor/map/while/Merge",
          "Preprocessor/map/while/LoopCond"
        ],
        "attr": {
          "T": {
            "type": 3
          }
        },
        "name": "Preprocessor/map/while/Switch",
        "op": "Switch"
      },
      {
        "input": [
          "Preprocessor/map/while/Merge_1",
          "Preprocessor/map/while/LoopCond"
        ],
        "attr": {
          "T": {
            "type": 1
          }
        },
        "name": "Preprocessor/map/while/Switch_1",
        "op": "Switch"
      },
      {
        "input": [
          "Preprocessor/map/while/Switch:1"
        ],
        "attr": {
          "T": {
            "type": 3
          }
        },
        "name": "Preprocessor/map/while/Identity",
        "op": "Identity"
      },
      {
        "input": [
          "Preprocessor/map/while/Switch_1"
        ],
        "attr": {
          "T": {
            "type": 1
          }
        },
        "name": "Preprocessor/map/while/Exit_1",
        "op": "Exit"
      },
      {
        "input": [
          "Preprocessor/map/while/TensorArrayReadV3/Enter",
          "Preprocessor/map/while/Identity",
          "Preprocessor/map/while/TensorArrayReadV3/Enter_1"
        ],
        "attr": {
          "dtype": {
            "type": 1
          }
        },
        "name": "Preprocessor/map/while/TensorArrayReadV3",
        "op": "TensorArrayReadV3"
      },
      {
        "input": [
          "^Preprocessor/map/while/Identity"
        ],
        "attr": {
          "value": {
            "tensor": {
              "floatVal": [],
              "doubleVal": [],
              "intVal": [
                0
              ],
              "stringVal": [],
              "scomplexVal": [],
              "int64Val": [],
              "boolVal": [],
              "uint32Val": [],
              "uint64Val": [],
              "dtype": 3,
              "tensorShape": {
                "dim": []
              }
            }
          },
          "dtype": {
            "type": 3
          }
        },
        "name": "Preprocessor/map/while/ResizeImage/ExpandDims/dim",
        "op": "Const"
      },
      {
        "input": [
          "^Preprocessor/map/while/Identity"
        ],
        "attr": {
          "value": {
            "tensor": {
              "floatVal": [],
              "doubleVal": [],
              "intVal": [],
              "stringVal": [],
              "scomplexVal": [],
              "int64Val": [],
              "boolVal": [],
              "uint32Val": [],
              "uint64Val": [],
              "dtype": 3,
              "tensorShape": {
                "dim": [
                  {
                    "size": "2"
                  }
                ]
              }
            }
          },
          "dtype": {
            "type": 3
          }
        },
        "name": "Preprocessor/map/while/ResizeImage/size",
        "op": "Const"
      },
      {
        "input": [
          "^Preprocessor/map/while/Identity"
        ],
        "attr": {
          "value": {
            "tensor": {
              "floatVal": [],
              "doubleVal": [],
              "intVal": [
                1
              ],
              "stringVal": [],
              "scomplexVal": [],
              "int64Val": [],
              "boolVal": [],
              "uint32Val": [],
              "uint64Val": [],
              "dtype": 3,
              "tensorShape": {
                "dim": []
              }
            }
          },
          "dtype": {
            "type": 3
          }
        },
        "name": "Preprocessor/map/while/add/y",
        "op": "Const"
      },
      {
        "input": [
          "Preprocessor/map/TensorArray_1",
          "Preprocessor/map/while/Exit_1"
        ],
        "attr": {},
        "name": "Preprocessor/map/TensorArrayStack/TensorArraySizeV3",
        "op": "TensorArraySizeV3"
      },
      {
        "input": [
          "Preprocessor/map/while/TensorArrayReadV3",
          "Preprocessor/map/while/ResizeImage/ExpandDims/dim"
        ],
        "attr": {
          "Tdim": {
            "type": 3
          },
          "T": {
            "type": 1
          }
        },
        "name": "Preprocessor/map/while/ResizeImage/ExpandDims",
        "op": "ExpandDims"
      },
      {
        "input": [
          "Preprocessor/map/while/Identity",
          "Preprocessor/map/while/add/y"
        ],
        "attr": {
          "T": {
            "type": 3
          }
        },
        "name": "Preprocessor/map/while/add",
        "op": "Add"
      },
      {
        "input": [
          "MultipleGridAnchorGenerator/Concatenate/concat/axis",
          "Preprocessor/map/TensorArrayStack/TensorArraySizeV3",
          "MultipleGridAnchorGenerator/concat/axis"
        ],
        "attr": {
          "Tidx": {
            "type": 3
          }
        },
        "name": "Preprocessor/map/TensorArrayStack/range",
        "op": "Range"
      },
      {
        "input": [
          "Preprocessor/map/while/ResizeImage/ExpandDims",
          "Preprocessor/map/while/ResizeImage/size"
        ],
        "attr": {
          "align_corners": {
            "b": false
          },
          "T": {
            "type": 1
          }
        },
        "name": "Preprocessor/map/while/ResizeImage/ResizeBilinear",
        "op": "ResizeBilinear"
      },
      {
        "input": [
          "Preprocessor/map/while/add"
        ],
        "attr": {
          "T": {
            "type": 3
          }
        },
        "name": "Preprocessor/map/while/NextIteration",
        "op": "NextIteration"
      },
      {
        "input": [
          "Preprocessor/map/TensorArray_1",
          "Preprocessor/map/TensorArrayStack/range",
          "Preprocessor/map/while/Exit_1"
        ],
        "attr": {
          "dtype": {
            "type": 1
          },
          "element_shape": {
            "shape": {
              "dim": [
                {
                  "size": "300"
                },
                {
                  "size": "300"
                },
                {
                  "size": "3"
                }
              ]
            }
          }
        },
        "name": "Preprocessor/map/TensorArrayStack/TensorArrayGatherV3",
        "op": "TensorArrayGatherV3"
      },
      {
        "input": [
          "Preprocessor/map/while/ResizeImage/ResizeBilinear"
        ],
        "attr": {
          "squeeze_dims": {
            "list": {
              "s": [],
              "i": [
                "0"
              ],
              "f": [],
              "b": [],
              "type": [],
              "shape": [],
              "tensor": [],
              "func": []
            }
          },
          "T": {
            "type": 1
          }
        },
        "name": "Preprocessor/map/while/ResizeImage/Squeeze",
        "op": "Squeeze"
      },
      {
        "input": [
          "Preprocessor/mul/x",
          "Preprocessor/map/TensorArrayStack/TensorArrayGatherV3"
        ],
        "attr": {
          "T": {
            "type": 1
          }
        },
        "name": "Preprocessor/mul",
        "op": "Mul"
      },
      {
        "input": [
          "Preprocessor/map/while/TensorArrayWrite/TensorArrayWriteV3/Enter",
          "Preprocessor/map/while/Identity",
          "Preprocessor/map/while/ResizeImage/Squeeze",
          "Preprocessor/map/while/Switch_1:1"
        ],
        "attr": {
          "T": {
            "type": 1
          }
        },
        "name": "Preprocessor/map/while/TensorArrayWrite/TensorArrayWriteV3",
        "op": "TensorArrayWriteV3"
      },
      {
        "input": [
          "Preprocessor/mul",
          "MultipleGridAnchorGenerator/strided_slice"
        ],
        "attr": {
          "T": {
            "type": 1
          }
        },
        "name": "Preprocessor/sub",
        "op": "Sub"
      },
      {
        "input": [
          "Preprocessor/map/while/TensorArrayWrite/TensorArrayWriteV3"
        ],
        "attr": {
          "T": {
            "type": 1
          }
        },
        "name": "Preprocessor/map/while/NextIteration_1",
        "op": "NextIteration"
      },
      {
        "input": [
          "Preprocessor/sub"
        ],
        "attr": {
          "T": {
            "type": 1
          },
          "out_type": {
            "type": 3
          }
        },
        "name": "Shape_6",
        "op": "Shape"
      },
      {
        "input": [
          "Preprocessor/sub",
          "FeatureExtractor/MobilenetV1/MobilenetV1/Conv2d_0/Conv2D/merged_input"
        ],
        "attr": {
          "use_cudnn_on_gpu": {
            "b": true
          },
…
            "i": "0"
          },
          "N": {
            "i": "4"
          }
        },
        "name": "BoxPredictor_5/stack",
        "op": "Pack"
      },
      {
        "input": [
          "BoxPredictor_5/strided_slice",
          "BoxPredictor_5/stack/1",
          "BoxPredictor_0/stack_1/2"
        ],
        "attr": {
          "T": {
            "type": 3
          },
          "axis": {
            "i": "0"
          },
          "N": {
            "i": "3"
          }
        },
        "name": "BoxPredictor_5/stack_1",
        "op": "Pack"
      },
      {
        "input": [
          "BoxPredictor_5/BoxEncodingPredictor/BiasAdd",
          "BoxPredictor_5/stack"
        ],
        "attr": {
          "T": {
            "type": 1
          },
          "Tshape": {
            "type": 3
          }
        },
        "name": "BoxPredictor_5/Reshape",
        "op": "Reshape"
      },
      {
        "input": [
          "BoxPredictor_5/ClassPredictor/BiasAdd",
          "BoxPredictor_5/stack_1"
        ],
        "attr": {
          "Tshape": {
            "type": 3
          },
          "T": {
            "type": 1
          }
        },
        "name": "BoxPredictor_5/Reshape_1",
        "op": "Reshape"
      },
      {
        "input": [
          "BoxPredictor_0/Reshape",
          "BoxPredictor_1/Reshape",
          "BoxPredictor_2/Reshape",
          "BoxPredictor_3/Reshape",
          "BoxPredictor_4/Reshape",
          "BoxPredictor_5/Reshape",
          "MultipleGridAnchorGenerator/concat/axis"
        ],
        "attr": {
          "Tidx": {
            "type": 3
          },
          "T": {
            "type": 1
          },
          "N": {
            "i": "6"
          }
        },
        "name": "concat",
        "op": "ConcatV2"
      },
      {
        "input": [
          "BoxPredictor_0/Reshape_1",
          "BoxPredictor_1/Reshape_1",
          "BoxPredictor_2/Reshape_1",
          "BoxPredictor_3/Reshape_1",
          "BoxPredictor_4/Reshape_1",
          "BoxPredictor_5/Reshape_1",
          "MultipleGridAnchorGenerator/concat/axis"
        ],
        "attr": {
          "N": {
            "i": "6"
          },
          "Tidx": {
            "type": 3
          },
          "T": {
            "type": 1
          }
        },
        "name": "concat_1",
        "op": "ConcatV2"
      },
      {
        "input": [
          "concat"
        ],
        "attr": {
          "T": {
            "type": 1
          },
          "squeeze_dims": {
            "list": {
              "s": [],
              "i": [
                "2"
              ],
              "f": [],
              "b": [],
              "type": [],
              "shape": [],
              "tensor": [],
              "func": []
            }
          }
        },
        "name": "Squeeze",
        "op": "Squeeze"
      },
      {
        "input": [
          "concat_1"
        ],
        "attr": {
          "T": {
            "type": 1
          }
        },
        "name": "Postprocessor/convert_scores",
        "op": "Sigmoid"
      },
      {
        "input": [
          "Squeeze",
          "Postprocessor/Reshape_1/shape"
        ],
        "attr": {
          "T": {
            "type": 1
          },
          "Tshape": {
            "type": 3
          }
        },
        "name": "Postprocessor/Reshape_1",
        "op": "Reshape"
      },
      {
        "input": [
          "Squeeze"
        ],
        "attr": {
          "T": {
            "type": 1
          },
          "out_type": {
            "type": 3
          }
        },
        "name": "Postprocessor/Shape",
        "op": "Shape"
      },
      {
        "input": [
          "Postprocessor/convert_scores",
          "Postprocessor/Slice/begin",
          "Postprocessor/Slice/size"
        ],
        "attr": {
          "Index": {
            "type": 3
          },
          "T": {
            "type": 1
          }
        },
        "name": "Postprocessor/Slice",
        "op": "Slice"
      },
      {
        "input": [
          "^Postprocessor/Reshape_1"
        ],
        "attr": {
          "value": {
            "tensor": {
              "floatVal": [],
              "doubleVal": [],
              "intVal": [],
              "stringVal": [],
              "scomplexVal": [],
              "int64Val": [],
              "boolVal": [],
              "uint32Val": [],
              "uint64Val": [],
              "dtype": 3,
              "tensorShape": {
                "dim": [
                  {
                    "size": "2"
                  }
                ]
              }
            }
          },
          "dtype": {
            "type": 3
          }
        },
        "name": "Postprocessor/Decode/transpose/sub_1",
        "op": "Const"
      },
      {
        "input": [
          "Postprocessor/Shape",
          "Postprocessor/strided_slice/stack",
          "strided_slice_6/stack",
          "strided_slice_6/stack"
        ],
        "attr": {
          "T": {
            "type": 3
          },
          "Index": {
            "type": 3
          },
          "shrink_axis_mask": {
            "i": "1"
          },
          "ellipsis_mask": {
            "i": "0"
          },
          "begin_mask": {
            "i": "0"
          },
          "new_axis_mask": {
            "i": "0"
          },
          "end_mask": {
            "i": "0"
          }
        },
        "name": "Postprocessor/strided_slice",
        "op": "StridedSlice"
      },
      {
        "input": [
          "Postprocessor/Reshape_1",
          "Postprocessor/Decode/transpose/sub_1"
        ],
        "attr": {
          "T": {
            "type": 1
          },
          "Tperm": {
            "type": 3
          }
        },
        "name": "Postprocessor/Decode/transpose",
        "op": "Transpose"
      },
      {
        "input": [
          "Postprocessor/strided_slice",
          "MultipleGridAnchorGenerator/concat/axis",
          "MultipleGridAnchorGenerator/concat/axis"
        ],
        "attr": {
          "axis": {
            "i": "0"
          },
          "N": {
            "i": "3"
          },
          "T": {
            "type": 3
          }
        },
        "name": "Postprocessor/Tile/multiples",
        "op": "Pack"
      },
      {
        "input": [
          "Postprocessor/strided_slice",
          "MultipleGridAnchorGenerator/assert_equal/x",
          "BoxPredictor_0/stack/3"
        ],
        "attr": {
          "T": {
            "type": 3
          },
          "axis": {
            "i": "0"
          },
          "N": {
            "i": "3"
          }
        },
        "name": "Postprocessor/stack",
        "op": "Pack"
      },
      {
        "input": [
          "Postprocessor/Decode/transpose"
        ],
        "attr": {
          "T": {
            "type": 1
          },
          "num": {
            "i": "4"
          },
          "axis": {
            "i": "0"
          }
        },
        "name": "Postprocessor/Decode/unstack",
        "op": "Unpack"
      },
      {
        "input": [
          "Postprocessor/ExpandDims",
          "Postprocessor/Tile/multiples"
        ],
        "attr": {
          "Tmultiples": {
            "type": 3
          },
          "T": {
            "type": 1
          }
        },
        "name": "Postprocessor/Tile",
        "op": "Tile"
      },
      {
        "input": [
          "Postprocessor/Decode/unstack",
          "ConstantFolding/Postprocessor/Decode/div_recip"
        ],
        "attr": {
          "T": {
            "type": 1
          }
        },
        "name": "Postprocessor/Decode/div",
        "op": "Mul"
      },
      {
        "input": [
          "Postprocessor/Decode/unstack:2",
          "ConstantFolding/Postprocessor/Decode/div_2_recip"
        ],
        "attr": {
          "T": {
            "type": 1
          }
        },
        "name": "Postprocessor/Decode/div_2",
        "op": "Mul"
      },
      {
        "input": [
          "Postprocessor/Decode/unstack:1",
          "ConstantFolding/Postprocessor/Decode/div_recip"
        ],
        "attr": {
          "T": {
            "type": 1
          }
        },
        "name": "Postprocessor/Decode/div_1",
        "op": "Mul"
      },
      {
        "input": [
          "Postprocessor/Decode/unstack:3",
          "ConstantFolding/Postprocessor/Decode/div_2_recip"
        ],
        "attr": {
          "T": {
            "type": 1
          }
        },
        "name": "Postprocessor/Decode/div_3",
        "op": "Mul"
      },
      {
        "input": [
          "Postprocessor/Tile",
          "Postprocessor/Reshape_1/shape"
        ],
        "attr": {
          "T": {
            "type": 1
          },
          "Tshape": {
            "type": 3
          }
        },
        "name": "Postprocessor/Reshape",
        "op": "Reshape"
      },
      {
        "input": [
          "Postprocessor/Decode/div_2"
        ],
        "attr": {
          "T": {
            "type": 1
          }
        },
        "name": "Postprocessor/Decode/Exp_1",
        "op": "Exp"
      },
      {
        "input": [
          "Postprocessor/Decode/div_3"
        ],
        "attr": {
          "T": {
            "type": 1
          }
        },
        "name": "Postprocessor/Decode/Exp",
        "op": "Exp"
      },
      {
        "input": [
          "^Postprocessor/Reshape"
        ],
        "attr": {
          "value": {
            "tensor": {
              "floatVal": [],
              "doubleVal": [],
              "intVal": [],
              "stringVal": [],
              "scomplexVal": [],
              "int64Val": [],
              "boolVal": [],
              "uint32Val": [],
              "uint64Val": [],
              "dtype": 3,
              "tensorShape": {
                "dim": [
                  {
                    "size": "2"
                  }
                ]
              }
            }
          },
          "dtype": {
            "type": 3
          }
        },
        "name": "Postprocessor/Decode/get_center_coordinates_and_sizes/transpose/sub_1",
        "op": "Const"
      },
      {
        "input": [
          "Postprocessor/Reshape",
          "Postprocessor/Decode/get_center_coordinates_and_sizes/transpose/sub_1"
        ],
        "attr": {
          "T": {
            "type": 1
          },
          "Tperm": {
            "type": 3
          }
        },
        "name": "Postprocessor/Decode/get_center_coordinates_and_sizes/transpose",
        "op": "Transpose"
      },
      {
        "input": [
          "Postprocessor/Decode/get_center_coordinates_and_sizes/transpose"
        ],
        "attr": {
          "T": {
            "type": 1
          },
          "num": {
            "i": "4"
          },
          "axis": {
            "i": "0"
          }
        },
        "name": "Postprocessor/Decode/get_center_coordinates_and_sizes/unstack",
        "op": "Unpack"
      },
      {
        "input": [
          "Postprocessor/Decode/get_center_coordinates_and_sizes/unstack:2",
          "Postprocessor/Decode/get_center_coordinates_and_sizes/unstack"
        ],
        "attr": {
          "T": {
            "type": 1
          }
        },
        "name": "Postprocessor/Decode/get_center_coordinates_and_sizes/sub_1",
        "op": "Sub"
      },
      {
        "input": [
          "Postprocessor/Decode/get_center_coordinates_and_sizes/unstack:3",
          "Postprocessor/Decode/get_center_coordinates_and_sizes/unstack:1"
        ],
        "attr": {
          "T": {
            "type": 1
          }
        },
        "name": "Postprocessor/Decode/get_center_coordinates_and_sizes/sub",
        "op": "Sub"
      },
      {
        "input": [
          "Postprocessor/Decode/div",
          "Postprocessor/Decode/get_center_coordinates_and_sizes/sub_1"
        ],
        "attr": {
          "T": {
            "type": 1
          }
        },
        "name": "Postprocessor/Decode/mul_2",
        "op": "Mul"
      },
      {
        "input": [
          "Postprocessor/Decode/get_center_coordinates_and_sizes/sub_1",
          "MultipleGridAnchorGenerator/mul_19/x"
        ],
        "attr": {
          "T": {
            "type": 1
          }
        },
        "name": "Postprocessor/Decode/get_center_coordinates_and_sizes/div",
        "op": "Mul"
      },
      {
        "input": [
          "Postprocessor/Decode/div_1",
          "Postprocessor/Decode/get_center_coordinates_and_sizes/sub"
        ],
        "attr": {
          "T": {
            "type": 1
          }
        },
        "name": "Postprocessor/Decode/mul_3",
        "op": "Mul"
      },
      {
        "input": [
          "Postprocessor/Decode/get_center_coordinates_and_sizes/sub",
          "MultipleGridAnchorGenerator/mul_19/x"
        ],
        "attr": {
          "T": {
            "type": 1
          }
        },
        "name": "Postprocessor/Decode/get_center_coordinates_and_sizes/div_1",
        "op": "Mul"
      },
      {
        "input": [
          "Postprocessor/Decode/get_center_coordinates_and_sizes/unstack",
          "Postprocessor/Decode/get_center_coordinates_and_sizes/div"
        ],
        "attr": {
          "T": {
            "type": 1
          }
        },
        "name": "Postprocessor/Decode/get_center_coordinates_and_sizes/add",
        "op": "Add"
      },
      {
        "input": [
          "Postprocessor/Decode/get_center_coordinates_and_sizes/div",
          "Postprocessor/Decode/Exp_1"
        ],
        "attr": {
          "T": {
            "type": 1
          }
        },
        "name": "Postprocessor/Decode/div_4",
        "op": "Mul"
      },
      {
        "input": [
          "Postprocessor/Decode/get_center_coordinates_and_sizes/unstack:1",
          "Postprocessor/Decode/get_center_coordinates_and_sizes/div_1"
        ],
        "attr": {
          "T": {
            "type": 1
          }
        },
        "name": "Postprocessor/Decode/get_center_coordinates_and_sizes/add_1",
        "op": "Add"
      },
      {
        "input": [
          "Postprocessor/Decode/get_center_coordinates_and_sizes/div_1",
          "Postprocessor/Decode/Exp"
        ],
        "attr": {
          "T": {
            "type": 1
          }
        },
        "name": "Postprocessor/Decode/div_5",
        "op": "Mul"
      },
      {
        "input": [
          "Postprocessor/Decode/mul_2",
          "Postprocessor/Decode/get_center_coordinates_and_sizes/add"
        ],
        "attr": {
          "T": {
            "type": 1
          }
        },
        "name": "Postprocessor/Decode/add",
        "op": "Add"
      },
      {
        "input": [
          "Postprocessor/Decode/mul_3",
          "Postprocessor/Decode/get_center_coordinates_and_sizes/add_1"
        ],
        "attr": {
          "T": {
            "type": 1
          }
        },
        "name": "Postprocessor/Decode/add_1",
        "op": "Add"
      },
      {
        "input": [
          "Postprocessor/Decode/add",
          "Postprocessor/Decode/div_4"
        ],
        "attr": {
          "T": {
            "type": 1
          }
        },
        "name": "Postprocessor/Decode/sub",
        "op": "Sub"
      },
      {
        "input": [
          "Postprocessor/Decode/add",
          "Postprocessor/Decode/div_4"
        ],
        "attr": {
          "T": {
            "type": 1
          }
        },
        "name": "Postprocessor/Decode/add_2",
        "op": "Add"
      },
      {
        "input": [
          "Postprocessor/Decode/add_1",
          "Postprocessor/Decode/div_5"
        ],
        "attr": {
          "T": {
            "type": 1
          }
        },
        "name": "Postprocessor/Decode/sub_1",
        "op": "Sub"
      },
      {
        "input": [
          "Postprocessor/Decode/add_1",
          "Postprocessor/Decode/div_5"
        ],
        "attr": {
          "T": {
            "type": 1
          }
        },
        "name": "Postprocessor/Decode/add_3",
        "op": "Add"
      },
      {
        "input": [
          "Postprocessor/Decode/sub",
          "Postprocessor/Decode/sub_1",
          "Postprocessor/Decode/add_2",
          "Postprocessor/Decode/add_3"
        ],
        "attr": {
          "T": {
            "type": 1
          },
          "axis": {
            "i": "0"
          },
          "N": {
            "i": "4"
          }
        },
        "name": "Postprocessor/Decode/stack",
        "op": "Pack"
      },
      {
        "input": [
          "^Postprocessor/Decode/stack"
        ],
        "attr": {
          "value": {
            "tensor": {
              "floatVal": [],
              "doubleVal": [],
              "intVal": [],
              "stringVal": [],
              "scomplexVal": [],
              "int64Val": [],
              "boolVal": [],
              "uint32Val": [],
              "uint64Val": [],
              "dtype": 3,
              "tensorShape": {
                "dim": [
                  {
                    "size": "2"
                  }
                ]
              }
            }
          },
          "dtype": {
            "type": 3
          }
        },
        "name": "Postprocessor/Decode/transpose_1/sub_1",
        "op": "Const"
      },
      {
        "input": [
          "Postprocessor/Decode/stack",
          "Postprocessor/Decode/transpose_1/sub_1"
        ],
        "attr": {
          "T": {
            "type": 1
          },
          "Tperm": {
            "type": 3
          }
        },
        "name": "Postprocessor/Decode/transpose_1",
        "op": "Transpose"
      },
      {
        "input": [
          "Postprocessor/Decode/transpose_1",
          "Postprocessor/stack"
        ],
        "attr": {
          "T": {
            "type": 1
          },
          "Tshape": {
            "type": 3
          }
        },
        "name": "Postprocessor/Reshape_2",
        "op": "Reshape"
      },
      {
        "input": [
          "Postprocessor/Reshape_2",
          "Postprocessor/ExpandDims_1/dim"
        ],
        "attr": {
          "Tdim": {
            "type": 3
          },
          "T": {
            "type": 1
          }
        },
        "name": "Postprocessor/ExpandDims_1",
        "op": "ExpandDims"
      }
    ],
    "library": {
      "function": [],
      "gradient": []
    },
    "versions": {
      "badConsumers": []
    }
  },
  "weightsManifest": [
    {
      "paths": [
        "group1-shard1of7",
        "group1-shard2of7",
        "group1-shard3of7",
        "group1-shard4of7",
        "group1-shard5of7",
        "group1-shard6of7",
        "group1-shard7of7"
      ],
      "weights": [
        {
          "shape": [],
          "dtype": "float32",
          "name": "ConstantFolding/Postprocessor/Decode/div_recip"
        },
        {
          "shape": [
            1083,
            2
          ],
          "dtype": "float32",
          "name": "MultipleGridAnchorGenerator/Reshape"
        },
        {
          "shape": [
            3
          ],
          "dtype": "float32",
          "name": "MultipleGridAnchorGenerator/div_14"
        },
        {
          "shape": [
            3
          ],
          "dtype": "float32",
          "name": "MultipleGridAnchorGenerator/mul_15"
        },
        {
          "shape": [
            3
          ],
          "dtype": "int32",
          "name": "MultipleGridAnchorGenerator/Meshgrid_2/ExpandedShape/concat"
        },
        {
          "shape": [
            3
          ],
          "dtype": "int32",
          "name": "MultipleGridAnchorGenerator/Meshgrid_2/ExpandedShape_1/concat"
        },
        {
          "shape": [
            600,
            2
          ],
          "dtype": "float32",
          "name": "MultipleGridAnchorGenerator/Reshape_2"
        },
        {
          "shape": [
            6
          ],
          "dtype": "float32",
          "name": "MultipleGridAnchorGenerator/div_15"
        },
        {
          "shape": [
            6
          ],
          "dtype": "float32",
          "name": "MultipleGridAnchorGenerator/mul_23"
        },
        {
          "shape": [
            3
          ],
          "dtype": "int32",
          "name": "MultipleGridAnchorGenerator/Meshgrid_5/ExpandedShape_1/concat"
        },
        {
          "shape": [
            150,
            2
          ],
          "dtype": "float32",
          "name": "MultipleGridAnchorGenerator/Reshape_4"
        },
        {
          "shape": [
            6
          ],
          "dtype": "float32",
          "name": "MultipleGridAnchorGenerator/div_16"
        },
        {
          "shape": [
            6
          ],
          "dtype": "float32",
          "name": "MultipleGridAnchorGenerator/mul_31"
        },
        {
          "shape": [
            3
          ],
          "dtype": "int32",
          "name": "MultipleGridAnchorGenerator/Meshgrid_8/ExpandedShape_1/concat"
        },
        {
          "shape": [
            54,
            2
          ],
          "dtype": "float32",
          "name": "MultipleGridAnchorGenerator/Reshape_6"
        },
        {
          "shape": [
            6
          ],
          "dtype": "float32",
          "name": "MultipleGridAnchorGenerator/div_17"
        },
        {
          "shape": [
            6
          ],
          "dtype": "float32",
          "name": "MultipleGridAnchorGenerator/mul_39"
        },
        {
          "shape": [
            3
          ],
          "dtype": "int32",
          "name": "MultipleGridAnchorGenerator/Meshgrid_11/ExpandedShape_1/concat"
        },
        {
          "shape": [
            24,
            2
          ],
          "dtype": "float32",
          "name": "MultipleGridAnchorGenerator/Reshape_8"
        },
        {
          "shape": [
            6
          ],
          "dtype": "float32",
          "name": "MultipleGridAnchorGenerator/div_18"
        },
        {
          "shape": [
            6
          ],
          "dtype": "float32",
          "name": "MultipleGridAnchorGenerator/mul_47"
        },
        {
          "shape": [
            3
          ],
          "dtype": "int32",
          "name": "MultipleGridAnchorGenerator/Meshgrid_14/ExpandedShape_1/concat"
        },
        {
          "shape": [
            6,
            2
          ],
          "dtype": "float32",
          "name": "MultipleGridAnchorGenerator/Reshape_10"
        },
        {
          "shape": [
            6
          ],
          "dtype": "float32",
          "name": "MultipleGridAnchorGenerator/div_19"
        },
        {
          "shape": [
            6
          ],
          "dtype": "float32",
          "name": "MultipleGridAnchorGenerator/mul_55"
        },
        {
          "shape": [
            1
          ],
          "dtype": "int32",
          "name": "strided_slice_6/stack_1"
        },
        {
          "shape": [
            1
          ],
          "dtype": "int32",
          "name": "strided_slice_7/stack_1"
        },
        {
          "shape": [
            3
          ],
          "dtype": "int32",
          "name": "MultipleGridAnchorGenerator/Meshgrid_5/ExpandedShape/concat"
        },
        {
          "shape": [
            2
          ],
          "dtype": "int32",
          "name": "MultipleGridAnchorGenerator/Reshape_1/shape"
        },
        {
          "shape": [],
          "dtype": "float32",
          "name": "MultipleGridAnchorGenerator/mul_19/x"
        },
        {
          "shape": [
            2
          ],
          "dtype": "int32",
          "name": "Postprocessor/Reshape_1/shape"
        },
        {
          "shape": [],
          "dtype": "float32",
          "name": "ConstantFolding/Postprocessor/Decode/div_2_recip"
        },
        {
          "shape": [
            1,
            1,
            512,
            12
          ],
          "dtype": "float32",
          "name": "BoxPredictor_0/BoxEncodingPredictor/weights"
        },
        {
          "shape": [
            12
          ],
          "dtype": "float32",
          "name": "BoxPredictor_0/BoxEncodingPredictor/biases"
        },
        {
          "shape": [
            1,
            1,
            1024,
            24
          ],
          "dtype": "float32",
          "name": "BoxPredictor_1/BoxEncodingPredictor/weights"
        },
        {
          "shape": [
            24
          ],
          "dtype": "float32",
          "name": "BoxPredictor_1/BoxEncodingPredictor/biases"
        },
        {
          "shape": [
            1,
            1,
            512,
            24
          ],
          "dtype": "float32",
          "name": "BoxPredictor_2/BoxEncodingPredictor/weights"
        },
        {
          "shape": [
            24
          ],
          "dtype": "float32",
          "name": "BoxPredictor_2/BoxEncodingPredictor/biases"
        },
        {
          "shape": [
            1,
            1,
            256,
            24
          ],
          "dtype": "float32",
          "name": "BoxPredictor_3/BoxEncodingPredictor/weights"
        },
        {
          "shape": [
            24
          ],
          "dtype": "float32",
          "name": "BoxPredictor_3/BoxEncodingPredictor/biases"
        },
        {
          "shape": [
            1,
            1,
            256,
            24
          ],
          "dtype": "float32",
          "name": "BoxPredictor_4/BoxEncodingPredictor/weights"
        },
        {
          "shape": [
            24
          ],
          "dtype": "float32",
          "name": "BoxPredictor_4/BoxEncodingPredictor/biases"
        },
        {
          "shape": [
            1,
            1,
            128,
            24
          ],
          "dtype": "float32",
          "name": "BoxPredictor_5/BoxEncodingPredictor/weights"
        },
        {
          "shape": [
            24
          ],
          "dtype": "float32",
          "name": "BoxPredictor_5/BoxEncodingPredictor/biases"
        },
        {
          "shape": [],
          "dtype": "int32",
          "name": "MultipleGridAnchorGenerator/assert_equal/x"
        },
        {
          "shape": [],
          "dtype": "int32",
          "name": "BoxPredictor_0/stack/3"
        },
        {
          "shape": [],
          "dtype": "int32",
          "name": "Postprocessor/ExpandDims_1/dim"
        },
        {
          "shape": [
            1,
            1,
            512,
            273
          ],
          "dtype": "float32",
          "name": "BoxPredictor_0/ClassPredictor/weights"
        },
        {
          "shape": [
            273
          ],
          "dtype": "float32",
          "name": "BoxPredictor_0/ClassPredictor/biases"
        },
        {
          "shape": [],
          "dtype": "int32",
          "name": "BoxPredictor_0/stack/1"
        },
        {
          "shape": [
            1,
            1,
            1024,
            546
          ],
          "dtype": "float32",
          "name": "BoxPredictor_1/ClassPredictor/weights"
        },
        {
          "shape": [
            546
          ],
          "dtype": "float32",
          "name": "BoxPredictor_1/ClassPredictor/biases"
        },
        {
          "shape": [],
          "dtype": "int32",
          "name": "BoxPredictor_1/stack/1"
        },
        {
          "shape": [
            1,
            1,
            512,
            546
          ],
          "dtype": "float32",
          "name": "BoxPredictor_2/ClassPredictor/weights"
        },
        {
          "shape": [
            546
          ],
          "dtype": "float32",
          "name": "BoxPredictor_2/ClassPredictor/biases"
        },
        {
          "shape": [],
          "dtype": "int32",
          "name": "BoxPredictor_2/stack/1"
        },
        {
          "shape": [
            1,
            1,
            256,
            546
          ],
          "dtype": "float32",
          "name": "BoxPredictor_3/ClassPredictor/weights"
        },
        {
          "shape": [
            546
          ],
          "dtype": "float32",
          "name": "BoxPredictor_3/ClassPredictor/biases"
        },
        {
          "shape": [],
          "dtype": "int32",
          "name": "BoxPredictor_3/stack/1"
        },
        {
          "shape": [
            1,
            1,
            256,
            546
          ],
          "dtype": "float32",
          "name": "BoxPredictor_4/ClassPredictor/weights"
        },
        {
          "shape": [
            546
          ],
          "dtype": "float32",
          "name": "BoxPredictor_4/ClassPredictor/biases"
        },
        {
          "shape": [],
          "dtype": "int32",
          "name": "BoxPredictor_4/stack/1"
        },
        {
          "shape": [
            1,
            1,
            128,
            546
          ],
          "dtype": "float32",
          "name": "BoxPredictor_5/ClassPredictor/weights"
        },
        {
          "shape": [
            546
          ],
          "dtype": "float32",
          "name": "BoxPredictor_5/ClassPredictor/biases"
        },
        {
          "shape": [],
          "dtype": "float32",
          "name": "Preprocessor/mul/x"
        },
        {
          "shape": [],
          "dtype": "int32",
          "name": "MultipleGridAnchorGenerator/Concatenate/concat/axis"
        },
        {
          "shape": [],
          "dtype": "float32",
          "name": "MultipleGridAnchorGenerator/strided_slice"
        },
        {
          "shape": [
            3,
            3,
            3,
            32
          ],
          "dtype": "float32",
          "name": "FeatureExtractor/MobilenetV1/MobilenetV1/Conv2d_0/Conv2D/merged_input"
        },
        {
          "shape": [
            32
          ],
          "dtype": "float32",
          "name": "FeatureExtractor/MobilenetV1/MobilenetV1/Conv2d_0/BatchNorm/batchnorm/sub"
        },
        {
          "shape": [
            3,
            3,
            32,
            1
          ],
          "dtype": "float32",
          "name": "FeatureExtractor/MobilenetV1/Conv2d_1_depthwise/depthwise_weights"
        },
        {
          "shape": [
            32
          ],
          "dtype": "float32",
          "name": "FeatureExtractor/MobilenetV1/MobilenetV1/Conv2d_1_depthwise/BatchNorm/batchnorm/mul"
        },
        {
          "shape": [
            32
          ],
          "dtype": "float32",
          "name": "FeatureExtractor/MobilenetV1/MobilenetV1/Conv2d_1_depthwise/BatchNorm/batchnorm/sub"
        },
        {
          "shape": [
            1,
            1,
            32,
            64
          ],
          "dtype": "float32",
          "name": "FeatureExtractor/MobilenetV1/MobilenetV1/Conv2d_1_pointwise/Conv2D/merged_input"
        },
        {
          "shape": [
            64
          ],
          "dtype": "float32",
          "name": "FeatureExtractor/MobilenetV1/MobilenetV1/Conv2d_1_pointwise/BatchNorm/batchnorm/sub"
        },
        {
          "shape": [
            3,
            3,
            64,
            1
          ],
          "dtype": "float32",
          "name": "FeatureExtractor/MobilenetV1/Conv2d_2_depthwise/depthwise_weights"
        },
        {
          "shape": [
            64
          ],
          "dtype": "float32",
          "name": "FeatureExtractor/MobilenetV1/MobilenetV1/Conv2d_2_depthwise/BatchNorm/batchnorm/mul"
        },
        {
          "shape": [
            64
          ],
          "dtype": "float32",
          "name": "FeatureExtractor/MobilenetV1/MobilenetV1/Conv2d_2_depthwise/BatchNorm/batchnorm/sub"
        },
        {
          "shape": [
            1,
            1,
            64,
            128
          ],
          "dtype": "float32",
          "name": "FeatureExtractor/MobilenetV1/MobilenetV1/Conv2d_2_pointwise/Conv2D/merged_input"
        },
        {
          "shape": [
            128
          ],
          "dtype": "float32",
          "name": "FeatureExtractor/MobilenetV1/MobilenetV1/Conv2d_2_pointwise/BatchNorm/batchnorm/sub"
        },
        {
          "shape": [
            3,
            3,
            128,
            1
          ],
          "dtype": "float32",
          "name": "FeatureExtractor/MobilenetV1/Conv2d_3_depthwise/depthwise_weights"
        },
        {
          "shape": [
            128
          ],
          "dtype": "float32",
          "name": "FeatureExtractor/MobilenetV1/MobilenetV1/Conv2d_3_depthwise/BatchNorm/batchnorm/mul"
        },
        {
          "shape": [
            128
          ],
          "dtype": "float32",
          "name": "FeatureExtractor/MobilenetV1/MobilenetV1/Conv2d_3_depthwise/BatchNorm/batchnorm/sub"
        },
        {
          "shape": [
            1,
            1,
            128,
            128
          ],
          "dtype": "float32",
          "name": "FeatureExtractor/MobilenetV1/MobilenetV1/Conv2d_3_pointwise/Conv2D/merged_input"
        },
        {
          "shape": [
            128
          ],
          "dtype": "float32",
          "name": "FeatureExtractor/MobilenetV1/MobilenetV1/Conv2d_3_pointwise/BatchNorm/batchnorm/sub"
        },
        {
          "shape": [
            3,
            3,
            128,
            1
          ],
          "dtype": "float32",
          "name": "FeatureExtractor/MobilenetV1/Conv2d_4_depthwise/depthwise_weights"
        },
        {
          "shape": [
            128
          ],
          "dtype": "float32",
          "name": "FeatureExtractor/MobilenetV1/MobilenetV1/Conv2d_4_depthwise/BatchNorm/batchnorm/mul"
        },
        {
          "shape": [
            128
          ],
          "dtype": "float32",
          "name": "FeatureExtractor/MobilenetV1/MobilenetV1/Conv2d_4_depthwise/BatchNorm/batchnorm/sub"
        },
        {
          "shape": [
            1,
            1,
            128,
            256
          ],
          "dtype": "float32",
          "name": "FeatureExtractor/MobilenetV1/MobilenetV1/Conv2d_4_pointwise/Conv2D/merged_input"
        },
        {
          "shape": [
            256
          ],
          "dtype": "float32",
          "name": "FeatureExtractor/MobilenetV1/MobilenetV1/Conv2d_4_pointwise/BatchNorm/batchnorm/sub"
        },
        {
          "shape": [
            3,
            3,
            256,
            1
          ],
          "dtype": "float32",
          "name": "FeatureExtractor/MobilenetV1/Conv2d_5_depthwise/depthwise_weights"
        },
        {
          "shape": [
            256
          ],
          "dtype": "float32",
          "name": "FeatureExtractor/MobilenetV1/MobilenetV1/Conv2d_5_depthwise/BatchNorm/batchnorm/mul"
        },
        {
          "shape": [
            256
          ],
          "dtype": "float32",
          "name": "FeatureExtractor/MobilenetV1/MobilenetV1/Conv2d_5_depthwise/BatchNorm/batchnorm/sub"
        },
        {
          "shape": [
            1,
            1,
            256,
            256
          ],
          "dtype": "float32",
          "name": "FeatureExtractor/MobilenetV1/MobilenetV1/Conv2d_5_pointwise/Conv2D/merged_input"
        },
        {
          "shape": [
            256
          ],
          "dtype": "float32",
          "name": "FeatureExtractor/MobilenetV1/MobilenetV1/Conv2d_5_pointwise/BatchNorm/batchnorm/sub"
        },
        {
          "shape": [
            3,
            3,
            256,
            1
          ],
          "dtype": "float32",
          "name": "FeatureExtractor/MobilenetV1/Conv2d_6_depthwise/depthwise_weights"
        },
        {
          "shape": [
            256
          ],
          "dtype": "float32",
          "name": "FeatureExtractor/MobilenetV1/MobilenetV1/Conv2d_6_depthwise/BatchNorm/batchnorm/mul"
        },
        {
          "shape": [
            256
          ],
          "dtype": "float32",
          "name": "FeatureExtractor/MobilenetV1/MobilenetV1/Conv2d_6_depthwise/BatchNorm/batchnorm/sub"
        },
        {
          "shape": [
            1,
            1,
            256,
            512
          ],
          "dtype": "float32",
          "name": "FeatureExtractor/MobilenetV1/MobilenetV1/Conv2d_6_pointwise/Conv2D/merged_input"
        },
        {
          "shape": [
            512
          ],
          "dtype": "float32",
          "name": "FeatureExtractor/MobilenetV1/MobilenetV1/Conv2d_6_pointwise/BatchNorm/batchnorm/sub"
        },
        {
          "shape": [
            3,
            3,
            512,
            1
          ],
          "dtype": "float32",
          "name": "FeatureExtractor/MobilenetV1/Conv2d_7_depthwise/depthwise_weights"
        },
        {
          "shape": [
            512
          ],
          "dtype": "float32",
          "name": "FeatureExtractor/MobilenetV1/MobilenetV1/Conv2d_7_depthwise/BatchNorm/batchnorm/mul"
        },
        {
          "shape": [
            512
          ],
          "dtype": "float32",
          "name": "FeatureExtractor/MobilenetV1/MobilenetV1/Conv2d_7_depthwise/BatchNorm/batchnorm/sub"
        },
        {
          "shape": [
            1,
            1,
            512,
            512
          ],
          "dtype": "float32",
          "name": "FeatureExtractor/MobilenetV1/MobilenetV1/Conv2d_7_pointwise/Conv2D/merged_input"
        },
        {
          "shape": [
            512
          ],
          "dtype": "float32",
          "name": "FeatureExtractor/MobilenetV1/MobilenetV1/Conv2d_7_pointwise/BatchNorm/batchnorm/sub"
        },
        {
          "shape": [
            3,
            3,
            512,
            1
          ],
          "dtype": "float32",
          "name": "FeatureExtractor/MobilenetV1/Conv2d_8_depthwise/depthwise_weights"
        },
        {
          "shape": [
            512
          ],
          "dtype": "float32",
          "name": "FeatureExtractor/MobilenetV1/MobilenetV1/Conv2d_8_depthwise/BatchNorm/batchnorm/mul"
        },
        {
          "shape": [
            512
          ],
          "dtype": "float32",
          "name": "FeatureExtractor/MobilenetV1/MobilenetV1/Conv2d_8_depthwise/BatchNorm/batchnorm/sub"
        },
        {
          "shape": [
            1,
            1,
            512,
            512
          ],
          "dtype": "float32",
          "name": "FeatureExtractor/MobilenetV1/MobilenetV1/Conv2d_8_pointwise/Conv2D/merged_input"
        },
        {
          "shape": [
            512
          ],
          "dtype": "float32",
          "name": "FeatureExtractor/MobilenetV1/MobilenetV1/Conv2d_8_pointwise/BatchNorm/batchnorm/sub"
        },
        {
          "shape": [
            3,
            3,
            512,
            1
          ],
          "dtype": "float32",
          "name": "FeatureExtractor/MobilenetV1/Conv2d_9_depthwise/depthwise_weights"
        },
        {
          "shape": [
            512
          ],
          "dtype": "float32",
          "name": "FeatureExtractor/MobilenetV1/MobilenetV1/Conv2d_9_depthwise/BatchNorm/batchnorm/mul"
        },
        {
          "shape": [
            512
          ],
          "dtype": "float32",
          "name": "FeatureExtractor/MobilenetV1/MobilenetV1/Conv2d_9_depthwise/BatchNorm/batchnorm/sub"
        },
        {
          "shape": [
            1,
            1,
            512,
            512
          ],
          "dtype": "float32",
          "name": "FeatureExtractor/MobilenetV1/MobilenetV1/Conv2d_9_pointwise/Conv2D/merged_input"
        },
        {
          "shape": [
            512
          ],
          "dtype": "float32",
          "name": "FeatureExtractor/MobilenetV1/MobilenetV1/Conv2d_9_pointwise/BatchNorm/batchnorm/sub"
        },
        {
          "shape": [
            3,
            3,
            512,
            1
          ],
          "dtype": "float32",
          "name": "FeatureExtractor/MobilenetV1/Conv2d_10_depthwise/depthwise_weights"
        },
        {
          "shape": [
            512
          ],
          "dtype": "float32",
          "name": "FeatureExtractor/MobilenetV1/MobilenetV1/Conv2d_10_depthwise/BatchNorm/batchnorm/mul"
        },
        {
          "shape": [
            512
          ],
          "dtype": "float32",
          "name": "FeatureExtractor/MobilenetV1/MobilenetV1/Conv2d_10_depthwise/BatchNorm/batchnorm/sub"
        },
        {
          "shape": [
            1,
            1,
            512,
            512
          ],
          "dtype": "float32",
          "name": "FeatureExtractor/MobilenetV1/MobilenetV1/Conv2d_10_pointwise/Conv2D/merged_input"
        },
        {
          "shape": [
            512
          ],
          "dtype": "float32",
          "name": "FeatureExtractor/MobilenetV1/MobilenetV1/Conv2d_10_pointwise/BatchNorm/batchnorm/sub"
        },
        {
          "shape": [
            3,
            3,
            512,
            1
          ],
          "dtype": "float32",
          "name": "FeatureExtractor/MobilenetV1/Conv2d_11_depthwise/depthwise_weights"
        },
        {
          "shape": [
            512
          ],
          "dtype": "float32",
          "name": "FeatureExtractor/MobilenetV1/MobilenetV1/Conv2d_11_depthwise/BatchNorm/batchnorm/mul"
        },
        {
          "shape": [
            512
          ],
          "dtype": "float32",
          "name": "FeatureExtractor/MobilenetV1/MobilenetV1/Conv2d_11_depthwise/BatchNorm/batchnorm/sub"
        },
        {
          "shape": [
            1,
            1,
            512,
            512
          ],
          "dtype": "float32",
          "name": "FeatureExtractor/MobilenetV1/MobilenetV1/Conv2d_11_pointwise/Conv2D/merged_input"
        },
        {
          "shape": [
            512
          ],
          "dtype": "float32",
          "name": "FeatureExtractor/MobilenetV1/MobilenetV1/Conv2d_11_pointwise/BatchNorm/batchnorm/sub"
        },
        {
          "shape": [
            3,
            3,
            512,
            1
          ],
          "dtype": "float32",
          "name": "FeatureExtractor/MobilenetV1/Conv2d_12_depthwise/depthwise_weights"
        },
        {
          "shape": [
            512
          ],
          "dtype": "float32",
          "name": "FeatureExtractor/MobilenetV1/MobilenetV1/Conv2d_12_depthwise/BatchNorm/batchnorm/mul"
        },
        {
          "shape": [
            512
          ],
          "dtype": "float32",
          "name": "FeatureExtractor/MobilenetV1/MobilenetV1/Conv2d_12_depthwise/BatchNorm/batchnorm/sub"
        },
        {
          "shape": [
            1,
            1,
            512,
            1024
          ],
          "dtype": "float32",
          "name": "FeatureExtractor/MobilenetV1/MobilenetV1/Conv2d_12_pointwise/Conv2D/merged_input"
        },
        {
          "shape": [
            1024
          ],
          "dtype": "float32",
          "name": "FeatureExtractor/MobilenetV1/MobilenetV1/Conv2d_12_pointwise/BatchNorm/batchnorm/sub"
        },
        {
          "shape": [
            3,
            3,
            1024,
            1
          ],
          "dtype": "float32",
          "name": "FeatureExtractor/MobilenetV1/Conv2d_13_depthwise/depthwise_weights"
        },
        {
          "shape": [
            1024
          ],
          "dtype": "float32",
          "name": "FeatureExtractor/MobilenetV1/MobilenetV1/Conv2d_13_depthwise/BatchNorm/batchnorm/mul"
        },
        {
          "shape": [
            1024
          ],
          "dtype": "float32",
          "name": "FeatureExtractor/MobilenetV1/MobilenetV1/Conv2d_13_depthwise/BatchNorm/batchnorm/sub"
        },
        {
          "shape": [
            1,
            1,
            1024,
            1024
          ],
          "dtype": "float32",
          "name": "FeatureExtractor/MobilenetV1/MobilenetV1/Conv2d_13_pointwise/Conv2D/merged_input"
        },
        {
          "shape": [
            1024
          ],
          "dtype": "float32",
          "name": "FeatureExtractor/MobilenetV1/MobilenetV1/Conv2d_13_pointwise/BatchNorm/batchnorm/sub"
        },
        {
          "shape": [
            1,
            1,
            1024,
            256
          ],
          "dtype": "float32",
          "name": "FeatureExtractor/MobilenetV1/Conv2d_13_pointwise_1_Conv2d_2_1x1_256/Conv2D/merged_input"
        },
        {
          "shape": [
            256
          ],
          "dtype": "float32",
          "name": "FeatureExtractor/MobilenetV1/Conv2d_13_pointwise_1_Conv2d_2_1x1_256/BatchNorm/batchnorm/sub"
        },
        {
          "shape": [
            3,
            3,
            256,
            512
          ],
          "dtype": "float32",
          "name": "FeatureExtractor/MobilenetV1/Conv2d_13_pointwise_2_Conv2d_2_3x3_s2_512/Conv2D/merged_input"
        },
        {
          "shape": [
            512
          ],
          "dtype": "float32",
          "name": "FeatureExtractor/MobilenetV1/Conv2d_13_pointwise_2_Conv2d_2_3x3_s2_512/BatchNorm/batchnorm/sub"
        },
        {
          "shape": [
            1,
            1,
            512,
            128
          ],
          "dtype": "float32",
          "name": "FeatureExtractor/MobilenetV1/Conv2d_13_pointwise_1_Conv2d_3_1x1_128/Conv2D/merged_input"
        },
        {
          "shape": [
            128
          ],
          "dtype": "float32",
          "name": "FeatureExtractor/MobilenetV1/Conv2d_13_pointwise_1_Conv2d_3_1x1_128/BatchNorm/batchnorm/sub"
        },
        {
          "shape": [
            3,
            3,
            128,
            256
          ],
          "dtype": "float32",
          "name": "FeatureExtractor/MobilenetV1/Conv2d_13_pointwise_2_Conv2d_3_3x3_s2_256/Conv2D/merged_input"
        },
        {
          "shape": [
            256
          ],
          "dtype": "float32",
          "name": "FeatureExtractor/MobilenetV1/Conv2d_13_pointwise_2_Conv2d_3_3x3_s2_256/BatchNorm/batchnorm/sub"
        },
        {
          "shape": [
            1,
            1,
            256,
            128
          ],
          "dtype": "float32",
          "name": "FeatureExtractor/MobilenetV1/Conv2d_13_pointwise_1_Conv2d_4_1x1_128/Conv2D/merged_input"
        },
        {
          "shape": [
            128
          ],
          "dtype": "float32",
          "name": "FeatureExtractor/MobilenetV1/Conv2d_13_pointwise_1_Conv2d_4_1x1_128/BatchNorm/batchnorm/sub"
        },
        {
          "shape": [
            3,
            3,
            128,
            256
          ],
          "dtype": "float32",
          "name": "FeatureExtractor/MobilenetV1/Conv2d_13_pointwise_2_Conv2d_4_3x3_s2_256/Conv2D/merged_input"
        },
        {
          "shape": [
            256
          ],
          "dtype": "float32",
          "name": "FeatureExtractor/MobilenetV1/Conv2d_13_pointwise_2_Conv2d_4_3x3_s2_256/BatchNorm/batchnorm/sub"
        },
        {
          "shape": [
            1,
            1,
            256,
            64
          ],
          "dtype": "float32",
          "name": "FeatureExtractor/MobilenetV1/Conv2d_13_pointwise_1_Conv2d_5_1x1_64/Conv2D/merged_input"
        },
        {
          "shape": [
            64
          ],
          "dtype": "float32",
          "name": "FeatureExtractor/MobilenetV1/Conv2d_13_pointwise_1_Conv2d_5_1x1_64/BatchNorm/batchnorm/sub"
        },
        {
          "shape": [
            3,
            3,
            64,
            128
          ],
          "dtype": "float32",
          "name": "FeatureExtractor/MobilenetV1/Conv2d_13_pointwise_2_Conv2d_5_3x3_s2_128/Conv2D/merged_input"
        },
        {
          "shape": [
            128
          ],
          "dtype": "float32",
          "name": "FeatureExtractor/MobilenetV1/Conv2d_13_pointwise_2_Conv2d_5_3x3_s2_128/BatchNorm/batchnorm/sub"
        },
        {
          "shape": [
            1
          ],
          "dtype": "int32",
          "name": "Postprocessor/strided_slice/stack"
        },
        {
          "shape": [
            1
          ],
          "dtype": "int32",
          "name": "strided_slice_6/stack"
        },
        {
          "shape": [],
          "dtype": "int32",
          "name": "BoxPredictor_5/stack/1"
        },
        {
          "shape": [],
          "dtype": "int32",
          "name": "BoxPredictor_0/stack_1/2"
        },
        {
          "shape": [],
          "dtype": "int32",
          "name": "MultipleGridAnchorGenerator/concat/axis"
        },
        {
          "shape": [
            3
          ],
          "dtype": "int32",
          "name": "Postprocessor/Slice/begin"
        },
        {
          "shape": [
            3
          ],
          "dtype": "int32",
          "name": "Postprocessor/Slice/size"
        },
        {
          "shape": [],
          "dtype": "int32",
          "name": "Preprocessor/map/while/ResizeImage/ExpandDims/dim"
        },
        {
          "shape": [
            2
          ],
          "dtype": "int32",
          "name": "Preprocessor/map/while/ResizeImage/size"
        },
        {
          "shape": [],
          "dtype": "int32",
          "name": "Preprocessor/map/while/add/y"
        },
        {
          "shape": [
            2
          ],
          "dtype": "int32",
          "name": "Postprocessor/Decode/transpose/sub_1"
        },
        {
          "shape": [
            2
          ],
          "dtype": "int32",
          "name": "Postprocessor/Decode/get_center_coordinates_and_sizes/transpose/sub_1"
        },
        {
          "shape": [
            2
          ],
          "dtype": "int32",
          "name": "Postprocessor/Decode/transpose_1/sub_1"
        }
      ]
    }
  ]
}